3DeltaEModel.pt (torch, 98170 bytes, 7 tensors)

pigment_embedding.weight f4 [24, 61]
000000 ba 5b c8 bd 34 a2 f7 bd ab 32 c0 bd e2 fa 07 bd
       -0.097831205 -0.12091485 -0.09384664 -0.033198245
000010 f0 81 15 bc a2 3a 4d bd a6 e3 b9 3c 45 46 65 3e
       -0.009125218 -0.050104745 0.022691559 0.22390087
000020 21 1a d2 bf 4e 66 ae bf 99 dd d8 bd 40 ac 5a bc
       -1.6414224 -1.3624971 -0.105891414 -0.013346732
000030 3d 40 e8 3d c3 ea d5 bc 85 5d cd 3d 0d f8 a7 3d
       0.113403775 -0.02611292 0.10027603 0.08201609
000040 d6 b4 91 bd 1f c1 ed 3d e5 ba a4 3d af 7e fd bc
       -0.0711457 0.116091006 0.0804346 -0.030944197
000050 9d f1 c8 3d fe d2 b4 3d bc d9 ae 3d e3 03 d0 3c
       0.09811709 0.08829306 0.08537623 0.025392478
000060 30 27 9e 3c 54 fc d1 bc 5f d0 1b bc 80 4f 0f 3e
       0.019305795 -0.025633015 -0.009510129 0.1399517
000070 3c 8d 95 3d 8e ba 90 3d 49 ae 03 3b e3 a6 90 bd
       0.07302329 0.070668325 0.0020092896 -0.07063081
000080 97 11 69 be 7f 5b 94 bd 85 2a 92 3d 09 29 ad bd
       -0.22760616 -0.07244014 0.07137016 -0.084550925
000090 73 58 a7 be 37 c7 29 3e e5 ad de be b9 45 0b bf
       -0.3268467 0.165799 -0.43492046 -0.54403263
0000a0 2f 6a af bd 3d 89 d3 be ea db a4 be d6 fa 7f be
       -0.08565175 -0.41315642 -0.3219903 -0.2499803
0000b0 d6 d6 9c 3d 39 d2 c2 3d 7f 95 bf 3d 85 93 ba 3d
       0.07658164 0.09512753 0.09354686 0.09110168
0000c0 34 c9 8c 3d bc db 50 be ac 52 a5 bd 87 fc 69 3e
       0.06874314 -0.20396322 -0.08072409 0.22850238
0000d0 8a c4 cf bd a2 99 77 be 99 ff 37 3e c4 9e 49 be
       -0.10144909 -0.241797 0.17968597 -0.1968947
0000e0 5e 21 bc bb f5 5a 47 be 17 06 22 bf 9d 63 13 bd
       -0.0057412824 -0.19468291 -0.6329054 -0.03598367
0000f0 d3 af b7 bd 74 e7 a3 be 0d c9 d9 bb 93 d7 03 be
       -0.08969083 -0.32012522 -0.0066462816 -0.12875204
000100 1f 40 f6 bd ad e9 14 be c5 4c 8c be 19 3a b1 be
       -0.12023949 -0.14542265 -0.2740232 -0.34614637
000110 de 3e 80 3d b4 02 56 3d 6b d5 d0 3e 1b b5 e1 3d
       0.06261991 0.05224867 0.40787825 0.11020871
000120 fb d5 17 3e 43 0f b9 3d 37 35 64 3d 74 c2 2f 3e
       0.14827721 0.09036114 0.055714812 0.17164022
000130 32 b7 22 3e f5 67 7f 3d 07 a1 be bd 57 e2 05 bd
       0.15890196 0.062355 -0.09308057 -0.032686558
000140 d0 dd 72 3c df 20 17 bd 2d 13 47 be 45 13 e9 bc
       0.014823392 -0.036896583 -0.19440909 -0.028451571
000150 f5 d8 3d 3e b1 c7 28 be 92 46 0e be 26 68 6f bd
       0.18539794 -0.16482426 -0.13894108 -0.058448933
000160 5c 14 33 bd bb 0f 06 3d 89 8d 19 3d 2f 68 0f 3e
       -0.043720588 0.032729845 0.037488494 0.14004587
000170 10 b1 bf 3d ef 33 7d 3c f1 24 b4 3d 8c 29 e6 3d
       0.09359944 0.015454276 0.087961085 0.11238393
000180 b0 7f 02 bd 3c 27 b6 3d 8d 21 40 3e b0 58 64 3e
       -0.031860054 0.08894202 0.18762799 0.22299457
000190 75 04 85 3e b4 b9 6e 3e 17 42 85 3e d2 63 9c 3d
       0.25979963 0.23313028 0.26026985 0.07636227
0001a0 1a 92 0b 3f f8 67 c9 bd 85 7f 8e 3e 83 6d 5c be
       0.5451981 -0.098342836 0.27831665 -0.2152615
0001b0 b2 4b e6 bd 92 2c b0 be 4d b8 f3 be 36 4c f6 3d
       -0.112449065 -0.34409004 -0.47601548 0.12026255
0001c0 7c c1 94 bc b8 79 79 3e 2e bf af be 85 1c 18 be
       -0.018158667 0.24362838 -0.34325546 -0.1485463
0001d0 20 0d 29 bf 23 8a 3e be ce 21 f4 be 17 0d 57 3f
       -0.6603565 -0.18607382 -0.4768204 0.8400435
0001e0 6c 7d 27 3e 5a 92 0c 3f 29 40 f4 be 77 dd 9c be
       0.16356438 0.54910815 -0.477052 -0.30637714
0001f0 b6 1b 7c be 8a 3d 83 be 54 43 33 be 71 50 f4 be
       -0.24619946 -0.25632888 -0.17506152 -0.47717622
000200 1f c0 4e be d9 49 0a bc 08 f9 7a be ad ef 35 3e
       -0.20190476 -0.008440458 -0.2450906 0.1776721
000210 90 39 51 be 5e 5b d3 bd ae ff f1 bd 27 cf 32 be
       -0.20432115 -0.10320161 -0.11816345 -0.17461835
000220 e9 44 cc bd a5 f4 52 be 2b 71 3e be 4a d7 3b 3d
       -0.09974081 -0.20601137 -0.18597858 0.045859613
000230 3b 43 ca 3d 95 c5 9c 3d e7 2e 05 3e 3f 73 3f 3d
       0.098761044 0.07654873 0.13006173 0.046740767
000240 68 17 bd 3d f0 bb 07 bb da 35 8c 3d 9a 3d 1a 3e
       0.0923298 -0.0020711385 0.06846209 0.15062562
000250 6e a0 30 3e 16 60 c9 3d fd 1c 21 3d 90 94 5b bd
       0.17248699 0.0983278 0.039334286 -0.053608477
000260 bb c4 30 bd d9 72 01 be 69 72 1b be 3b 33 d7 bd
       -0.043156367 -0.12641467 -0.15180363 -0.10507818
000270 a6 71 79 3e e1 1d c6 3e ee ed 00 bf 6e 81 04 be
       0.2435976 0.3869467 -0.5036305 -0.12939999
000280 1d af 0e bf e5 95 80 3d 94 8e 5a bd 53 47 a4 bd
       -0.5573595 0.0627859 -0.05335863 -0.080214165
000290 26 27 99 3c cd 41 81 be 28 50 2c 3d e9 51 ea bd
       0.018695425 -0.25245515 0.04206863 -0.11441404
0002a0 31 b9 af 3e ec f0 d6 bd 72 ea 34 3f 2b df 40 3f
       0.34320977 -0.10495171 0.70670235 0.7534053
0002b0 03 50 9f bd 21 a6 ae 3c 9a 85 aa 3c 8c 7f 1b 3f
       -0.07778933 0.02131945 0.02081566 0.60741496
0002c0 17 87 be bd 62 08 fc 3e ca 7d d2 3d 77 82 43 3e
       -0.0930311 0.49225146 0.102778986 0.19092737
0002d0 e3 ee 93 3d e6 f3 8a bd 38 23 0e bc a0 44 8d bd
       0.072232984 -0.06784801 -0.008675389 -0.06897855
0002e0 b9 8c 73 3c f2 20 11 bd d5 28 ea bd 4a 47 dd bd
       0.014865094 -0.03543181 -0.11433569 -0.10804613
0002f0 4f 35 8a bd 26 53 42 be 9f 44 9a 3e 2f 41 5c bf
       -0.06748449 -0.18977031 0.3013048 -0.8603696
000300 c4 44 03 3f 02 7d 73 3d cb 88 9b 3d 08 1b 98 3c
       0.51276803 0.05944539 0.075944506 0.018567577
000310 a8 ee f1 bc c7 bd e5 3c 9f 73 6b bd 37 2f 09 3d
       -0.029532745 0.028044594 -0.05748331 0.033492293
000320 67 60 0d 3a cf 65 5d bd 4e 5e 5f bd 1d af 39 bd
       0.0005393088 -0.05405217 -0.054533295 -0.045333017
000330 d6 b3 73 39 a4 92 71 3d 6e b0 c0 bd 91 e9 86 bc
       0.0002324128 0.058977738 -0.09408651 -0.016468795
000340 01 28 c1 bc d8 b1 c2 bd c0 af 57 be 1a 4b c2 bd
       -0.023578646 -0.09506577 -0.21063137 -0.09486981
000350 d1 72 73 bc 99 e1 0e be d8 03 6b bd 60 41 7c bd
       -0.014858917 -0.13953246 -0.057376713 -0.061585784
000360 66 dc 08 3e b6 65 a7 be 47 cb b9 3d 82 7d 34 3f
       0.13365325 -0.32694787 0.09071975 0.7050401
000370 a9 7c d3 3c 71 be 46 3f 96 ab 7c 3f 32 fe 52 3e
       0.025816279 0.7763434 0.9869932 0.2060478
000380 66 bd b0 3e b1 9e 41 3e 24 30 29 3f 30 79 8a bd
       0.345195 0.18908192 0.6608908 -0.06761396
000390 7a a2 82 3e 14 53 b8 3c ef 80 a1 3a 74 d2 aa 3d
       0.25514585 0.022500552 0.001232175 0.08340922
0003a0 30 ea ce 3d 93 b5 84 3e c6 c7 c1 3d 9f 28 cf 3e
       0.101032615 0.2591978 0.09461932 0.4046068
0003b0 8c 0f 5f 3e aa 28 f7 3d ad 9b b2 bd c9 54 64 3e
       0.21783274 0.12068303 -0.08721099 0.22297968
0003c0 1c 3e 88 3e 66 06 54 3f d0 83 25 3d 03 c3 9b 3e
       0.26609886 0.82822263 0.04040891 0.3042222
0003d0 a7 da 38 3e bd b2 2c be d0 b5 f8 3d ab 21 23 3e
       0.18052159 -0.16865058 0.12144053 0.15930812
0003e0 68 9b 95 3d 2a 06 85 3e 55 5a 85 bc fb 86 20 3e
       0.07305032 0.25981265 -0.016278425 0.15676491
0003f0 ea 68 55 3f 28 c9 98 3e 15 07 eb bc a4 5d 6f 3d
       0.8336321 0.2984097 -0.0286899 0.058438912

regressor.0.weight f4 [128, 24]
000000 24 81 47 3d cb 20 a4 3e 63 97 1b 3e 5f 65 35 3e
       0.048707142 0.3205627 0.15194468 0.17714451
000010 66 b8 ca bd 7c ba c5 3d 36 47 a4 bd c4 df 5b bf
       -0.098984525 0.0965471 -0.08021395 -0.85888314
000020 99 ad b8 be 61 38 27 3d f3 30 3d be f9 7d 22 be
       -0.36069945 0.04082525 -0.18475704 -0.15868367
000030 d3 02 8c be fb c6 f9 bd 2a 42 ac 3e 4a 44 66 bd
       -0.27345905 -0.12196156 0.3364423 -0.05621747
000040 5d 86 87 be 06 78 01 3d 60 5b 99 bb 44 72 31 3e
       -0.264697 0.031608604 -0.004680082 0.17328745
000050 20 63 95 3e 4d 51 a1 be 63 41 19 bb a3 02 b7 be
       0.2917719 -0.3150734 -0.002338492 -0.357442
000060 40 0b 64 bd 6d 39 d6 3e f5 db 02 bf 6a c3 5d 3e
       -0.05567479 0.41840687 -0.5111688 0.21656576
000070 91 7b a6 3c c0 d0 94 be bc 70 04 3f 10 8b b3 3e
       0.020322593 -0.29065514 0.5173452 0.35067034
000080 38 be 8b be 51 5d 93 be e8 d7 e7 bc 16 2b da 3e
       -0.27293563 -0.28782132 -0.028301194 0.42610997
000090 de 64 e2 3e f6 c6 1e be 62 fd 2f 3e 08 70 15 bf
       0.4421758 -0.15505585 0.17186502 -0.5837407
0000a0 cc ac 71 3e cd 9f d1 3d 67 41 46 be 6e 02 83 be
       0.23601073 0.10235558 -0.19360887 -0.2558779
0000b0 eb 93 f0 be f2 af 3b bf c6 15 41 3e d3 a2 d6 be
       -0.46987852 -0.73315346 0.18855962 -0.419211
0000c0 40 28 68 3f fa 15 a8 be 5a 7f 98 3e e1 0a 00 3f
       0.90686417 -0.32829267 0.29784662 0.500166
0000d0 71 67 42 bf b4 a1 dc be 00 09 d1 3e 49 b3 62 3f
       -0.7593909 -0.4309212 0.4082718 0.8855482
0000e0 f1 0a cc 3d 8a 86 12 be 3b 00 5f bf e0 36 26 3f
       0.099630244 -0.14309135 -0.87109727 0.6492748
0000f0 85 03 cc 3d ce d7 fa 3e 78 c4 88 be 9c 41 61 3f
       0.09961609 0.4899277 -0.26712394 0.87990737
000100 78 c2 a0 3e 2c 8b 1f 3f ed c1 26 be 1a ac 33 3f
       0.31398368 0.62321734 -0.16284914 0.7018448
000110 c4 38 4c 3f a2 74 e5 be 43 c6 93 be f9 be 40 3f
       0.7977412 -0.44815546 -0.288622 0.752914
000120 f8 9b e7 3d 97 24 ce 3e 19 aa a8 bd f8 23 cd be
       0.113090456 0.4026229 -0.082355686 -0.40066504
000130 f3 26 15 be d8 d3 e9 be a9 b8 d1 3e 5a 21 31 be
       -0.14565639 -0.45669436 0.40961197 -0.17297879
000140 50 c9 d9 be ca 8f 60 be 26 cf aa be 09 e6 1a 3f
       -0.42536402 -0.21929851 -0.33361167 0.60507256
000150 7f 5d e2 3e 10 e3 de bc 27 85 22 3f 9e a5 90 be
       0.44211957 -0.027207881 0.63484424 -0.28251356
000160 96 32 23 3f c5 70 10 3f 32 06 5a 3e a6 2a 19 be
       0.63749063 0.5642207 0.21291426 -0.14957675
000170 f8 fc 85 3e b8 92 59 3e 47 46 91 3d 6d a9 c5 be
       0.26169562 0.21247375 0.070934825 -0.38605824
000180 a6 ce 6a 3f 13 6c 96 3d 87 e9 4a 3e b8 5e 41 3f
       0.9172157 0.07344832 0.19815646 0.75535154
000190 d5 7e af be 6d a1 d9 be 79 74 72 3d 17 06 0f 3e
       -0.34276453 -0.4250597 0.05919311 0.13967167
0001a0 ab ae 40 3f 50 e8 ec 3d 2a 07 bb be e6 6e 6e 3d
       0.7526652 0.115677476 -0.36528903 0.05821123
0001b0 b3 ad 5e be 29 bc 92 3f 4e a1 f5 3e 9b f8 17 3f
       -0.21745948 1.1463672 0.47974628 0.59363717
0001c0 55 61 a7 be f0 3d 07 3f 1b 8d 56 3e 1a 90 e7 3e
       -0.32691446 0.52828884 0.20952265 0.45227128
0001d0 24 42 49 3e 11 40 ca be 95 d8 eb be 86 44 ba 3d
       0.19654137 -0.39502004 -0.46063676 0.09095101
0001e0 92 fa 01 3e a4 7c b2 3d dc b5 8a 3e 40 f4 a0 be
       0.12693241 0.087151796 0.27091873 -0.31436348
0001f0 76 ba c8 3e df 34 a9 3e 06 81 c5 3e 09 b6 ef 3e
       0.39204758 0.3304815 0.38575 0.4681857
000200 e2 d6 e7 3e b5 46 18 bd 08 1d 8c be f8 6d 89 3d
       0.4528113 -0.037176806 -0.273659 0.06710428
000210 ce c4 b6 bd 6b b9 42 3e 5a 85 8b be 18 e8 07 3e
       -0.08924256 0.19016044 -0.27250177 0.1327213
000220 9b e4 86 3e 45 01 b6 3e 5d 09 bc be c3 9e 05 bf
       0.26346287 0.35547844 -0.36725894 -0.52195376
000230 ac c5 b4 be bc 31 65 3f dd 4d c7 3d f9 1a 08 3f
       -0.35307062 0.89529014 0.09731648 0.53166157
000240 6e 0e ea 3f bc 98 b6 be 51 f7 af 3d 5b 6b 5b 3f
       1.8285654 -0.35663402 0.08592094 0.85710686
000250 7e 22 8e bf 4e 6d 2a bf 7a d5 62 be 5b 9e c5 3e
       -1.1104276 -0.66573036 -0.22151747 0.38597378
000260 d5 d1 e4 3d 19 14 0b 3e a4 31 90 bf 3a ee 72 3f
       0.11172835 0.13581885 -1.1265149 0.94894755
000270 6e 34 16 bf cb cd 24 3f da 54 dd 3d f6 a6 ef 3f
       -0.5867375 0.64376515 0.108072 1.8722827
000280 f7 6a 42 bf 8c 53 59 3f bb 88 af 3e 13 c4 85 3e
       -0.75944465 0.8489311 0.34284005 0.26126155
000290 db 97 cf bc 01 d4 82 bd c5 11 04 bf b6 08 05 3f
       -0.025340965 -0.06388093 -0.51589614 0.51966417
0002a0 dc 5c b5 3f 1e e7 1e bf c8 14 94 be 4a 61 6a bf
       1.4168963 -0.62071407 -0.28922105 -0.915547
0002b0 f3 b0 d9 bd 92 45 84 3e 93 08 46 bd b4 45 b3 bd
       -0.106294535 0.25834328 -0.04834802 -0.08753529
0002c0 de 94 24 3e ee 30 0b 3f 03 6c 79 be 84 84 f5 be
       0.16072413 0.54371536 -0.2435761 -0.47952664
0002d0 8c 13 4f 3d 92 51 19 3f 61 ba bb bc dc d0 d1 bd
       0.05055575 0.5989009 -0.02291602 -0.10244915
0002e0 1a 79 32 be 8e ce 59 3f c9 3d bd 3e 2f 60 71 3e
       -0.17429009 0.850808 0.369612 0.23571847
0002f0 e8 44 14 3f 17 3e d8 be 21 43 b5 be 16 80 b8 be
       0.5791764 -0.4223487 -0.35402778 -0.36035222
000300 24 01 8b 3f 8d c1 9e be 1d 87 80 3a 39 ee 7a 3f
       1.0859723 -0.31007043 0.0009805892 0.9801975
000310 b1 1d 33 bf b7 aa bc be 6c d8 b0 bc f3 6a ee 3e
       -0.6996718 -0.36848995 -0.021587573 0.4656597
000320 a9 3b 81 3e 43 4f 6a bc ff fb 36 bf 03 6a 82 3f
       0.2524083 -0.014301124 -0.71478266 1.0188602
000330 9c 22 d3 be 73 1b 79 3e fd 9f 64 bd 34 f0 92 3f
       -0.41237342 0.24326877 -0.05581664 1.1479554
000340 0a ed ce be 29 e0 0a 3f 5d 97 a1 3e 43 de 94 3e
       -0.4041522 0.5424829 0.31560794 0.29075822
000350 2e 45 7e 3e 18 56 53 be 24 2d f1 be 58 f0 ee 3e
       0.24831077 -0.20638311 -0.47104752 0.46667743
000360 18 e4 20 3f 1c 66 c6 3e c7 6e 08 3f 28 90 8b 3e
       0.62848043 0.38749778 0.5329403 0.2725842
000370 56 a5 84 be ca 18 a6 bd b8 54 d3 bd 68 96 c2 bd
       -0.2590739 -0.08110197 -0.10318893 -0.09501344
000380 43 35 04 3f 5f 06 24 be 96 95 b8 3e f8 c1 96 be
       0.5164377 -0.16018055 0.36051625 -0.2944486
000390 7e e0 1c bf 02 27 83 3e cb 31 ac 3e 9d 09 0b 3f
       -0.6128005 0.25615698 0.3363174 0.54311544
0003a0 51 8b 96 bc 28 4f 20 bf 54 70 bd be 0c ad b0 3e
       -0.018376978 -0.6262078 -0.36999762 0.34507024
0003b0 6b f3 50 3e c9 9c c9 3d 4b 3e 3c bc db c9 f8 be
       0.20405357 0.098443575 -0.011489461 -0.48591504
0003c0 ae 47 11 be e1 c1 88 bd b2 fa 02 3d 64 7c 22 bf
       -0.141875 -0.066776045 0.031977363 -0.63471055
0003d0 81 ea bf 3d 40 1b 77 3e 1b 2b a6 bb db b8 20 be
       0.093709 0.24131489 -0.0050710565 -0.15695517
0003e0 e3 22 15 3e 8f 62 25 3c f7 da fd 3e 6e a2 74 bf
       0.1456409 0.010094299 0.4958112 -0.9556035
0003f0 19 51 0a 3f b8 de f1 bc a8 6f 7f bd 63 ba cf 3e
       0.54029995 -0.029525146 -0.062362343 0.4057189

regressor.0.bias f4 [128]
000000 bb 5b 5a 3e d7 87 1f bc 87 5b e4 bc 34 1a 0d be
       0.21324055 -0.009736977 -0.027875675 -0.13779527
000010 ea d3 5b be 05 ed 54 be b5 99 df bd 1a b2 e2 bd
       -0.21467558 -0.20793541 -0.10917989 -0.110691264
000020 8a 01 aa bd 2c 1c bb be 0b d3 fb bb ce 56 0f 3e
       -0.08301075 -0.3654493 -0.0076850704 0.13997957
000030 4d 08 4b be 0b c2 e3 bc 6b e3 82 3d ee be 39 be
       -0.19827385 -0.027802488 0.06391033 -0.1813924
000040 45 72 8f bd 66 e5 cf 3d 07 d7 9c 3d 30 e9 23 be
       -0.07004217 0.10151176 0.07658201 -0.16006923
000050 c8 75 25 3e 49 ab 41 be 63 8e be bd dd 82 32 be
       0.16158211 -0.18912996 -0.09304502 -0.17432733
000060 04 c3 17 3e 4d 39 5a 3d 93 7f 97 3d 95 ca cf bd
       0.14820486 0.053277303 0.0739738 -0.10146061
000070 97 ce f9 3d a8 61 49 be f4 96 01 be f7 02 2c be
       0.12197607 -0.19666159 -0.1265524 -0.16798006
000080 04 da 32 3e ee 63 82 bd 58 6f 12 3e f3 51 33 3e
       0.17465979 -0.06366716 0.14300287 0.1751173
000090 73 9b 13 3d 05 ef 34 3e 78 15 fa 3c 49 38 86 bd
       0.03603692 0.17669304 0.030527815 -0.06553704
0000a0 62 7c 03 3b 64 16 09 3d 29 65 9c bd a0 64 9e bd
       0.0020063152 0.03346862 -0.07636482 -0.077340364
0000b0 fa 14 f3 3d 6a 60 a3 3d ff 96 36 be 6b 17 3d 3e
       0.11869235 0.07977374 -0.17831038 0.18465964
0000c0 3c 1f 03 be ac 0b 93 3d 97 9f de bd f1 d5 15 3e
       -0.12804884 0.071799606 -0.10870283 0.14632393
0000d0 d7 49 74 3d cf e0 52 bd a6 82 23 3e 90 de 60 be
       0.05964073 -0.051483925 0.15967807 -0.21959901
0000e0 81 b9 3a be 9e 98 83 be 79 ad 0a 3e 4a 98 ca be
       -0.18234827 -0.25702375 0.13542737 -0.39569312
0000f0 aa 0b 2c be 1a 50 44 3e f1 ec 86 bd 13 d8 32 bf
       -0.16801324 0.19171181 -0.06588162 -0.69860953
000100 a5 36 65 be 11 f0 10 bb fc 7b 3b be c1 58 45 be
       -0.22384126 -0.0022115747 -0.18309015 -0.19272138
000110 68 a0 74 3e ba 4b a3 bd af e0 31 bc 19 89 99 bd
       0.23889315 -0.07973428 -0.010856791 -0.074968524
000120 77 81 88 3e 07 bf 34 3e 81 d2 51 be c6 e2 d9 bd
       0.26661274 0.17650996 -0.20490457 -0.10638957
000130 ee 89 34 bd ea 31 28 be 40 83 74 bd 07 5e a8 3e
       -0.044076853 -0.1642529 -0.059695482 0.32884237
000140 cb 2c c1 3d b0 76 06 3c 62 e5 01 be 2e 2f 2f 3e
       0.09432372 0.008207008 -0.12685159 0.17107841
000150 b8 90 50 be 8c 20 c3 bc f1 c7 35 3d 87 a8 98 3d
       -0.20367706 -0.02381923 0.044380132 0.07454019
000160 60 fb a7 bd de 0d 74 3d 0c 37 31 be e9 19 74 be
       -0.08202243 0.059583537 -0.17306155 -0.23838009
000170 39 dc 04 be 94 01 57 be 38 7e 93 3e 15 a1 46 be
       -0.12974633 -0.20996696 0.28807235 -0.19397385
000180 33 c9 e3 3d 25 43 2e be e9 bc 0b 3e b8 88 34 3e
       0.1112236 -0.17017801 0.13646282 0.17630279
000190 c9 fc 19 3e b6 64 70 be 37 78 a6 be 35 1d 16 3d
       0.15037836 -0.23475918 -0.32513592 0.036648948
0001a0 5d 27 21 3e 94 bd 0e be 09 97 3a be 4d 8a 20 bc
       0.15737672 -0.13939506 -0.18221678 -0.0097985985
0001b0 c5 d7 25 3e 3c 69 a5 3d e8 1f dd bd 68 b0 46 3e
       0.16195591 0.080767125 -0.10797101 0.19403231
0001c0 6e 3f c8 bc 97 99 ba be b5 4a 80 3e 99 30 bc 3d
       -0.024444308 -0.36445305 0.25056997 0.09188957
0001d0 29 41 03 3e ee 0d 58 3d 07 ca 99 3d 32 97 e0 bd
       0.12817825 0.05274766 0.07509237 -0.10966338
0001e0 62 f6 aa bd ef 57 5c ba 0f c3 0a be e1 8c 89 bd
       -0.08347775 -0.0008405437 -0.13550971 -0.06716324
0001f0 b3 7b 50 be 25 f0 cd 3d b7 69 9b 3d b5 72 f5 3d
       -0.20359688 0.100555696 0.07588523 0.11984769

regressor.3.weight f4 [128, 128]
000000 cc fc 31 3d 74 72 a7 be f0 d5 8e 3f 27 56 00 3e
       0.043453977 -0.32704508 1.1159039 0.12532865
000010 81 56 4a 3f 23 08 01 bc f5 c0 f4 3f 52 46 a9 3e
       0.79038244 -0.007875475 1.9121386 0.33061463
000020 9e 4b cd 3f 7c dc e4 3e bb 8b a0 bd ef a8 1b bf
       1.6038702 0.44699466 -0.078391515 -0.6080465
000030 96 57 06 3f 3f b6 e9 3e bc a8 0b bd 84 f8 1b 3f
       0.52477396 0.45646855 -0.034096465 0.6092608
000040 bb ff 1e 40 f7 dd ec bd e6 5d c2 be 06 b9 84 be
       2.4843585 -0.11565774 -0.37962264 -0.25922412
000050 86 ce d7 3d dd 27 95 be b8 6a 16 3f 3b 2d 6c 3f
       0.10537438 -0.29131976 0.5875659 0.92256516
000060 65 45 a0 bf ea f4 10 3e 14 8b c6 be 8d 76 4d 3e
       -1.2521178 0.14155927 -0.38777983 0.20064755
000070 64 b3 11 3e 54 a1 41 bd f0 da 75 be 81 11 57 3e
       0.14228588 -0.047272995 -0.240093 0.21002771
000080 e8 c5 89 be bf 74 4d be 58 bb 06 be 0d 46 ab bd
       -0.26908803 -0.20064066 -0.13157403 -0.083629705
000090 05 ef 01 3f 35 b7 f4 bf f6 d5 f2 3d 73 d1 a4 be
       0.5075534 -1.911841 0.11857216 -0.32191047
0000a0 56 ff c2 3e 09 b8 77 3c bc bf 28 40 4e ab 84 3e
       0.3808543 0.015119561 2.6367025 0.25911945
0000b0 ea 08 93 3d 89 91 ec bd 9b 7d 89 be 8a 5a 42 be
       0.071794346 -0.11551196 -0.26853642 -0.1897985
0000c0 d9 f1 5a be 76 79 58 bf 28 5e 94 3f e3 b5 44 bf
       -0.2138132 -0.84560335 1.1591234 -0.7684004
0000d0 a6 72 ee bc 6b e6 bb be dd de 4f 3c 23 62 23 3f
       -0.029107403 -0.36699232 0.012687412 0.6382162
0000e0 86 23 18 3f a1 85 10 3e db a9 01 bf f3 68 a0 3f
       0.59429204 0.14113475 -0.50649804 1.2532028
0000f0 71 cc 84 bd 5a 11 0f bd 84 1b ad bd ea 54 9a 3f
       -0.064843066 -0.034928657 -0.08452514 1.2057164
000100 db 76 05 be d4 05 fe 3e a0 48 27 3f 37 64 cb 3e
       -0.13033621 0.49613822 0.6534519 0.39724895
000110 e2 52 a5 bd 25 ff c3 be 62 89 ec bc 5d b4 26 bc
       -0.08072449 -0.38280597 -0.028874103 -0.010174838
000120 ec 19 ea bd ce 1b f7 bd 21 08 9a 3d 80 51 93 3d
       -0.114307255 -0.1206585 0.07521082 0.07193279
000130 02 76 c7 be 80 9b fe 3c 77 8b 1f 3d 13 18 4c bc
       -0.3895722 0.031080008 0.038951363 -0.012456912
000140 13 78 e3 be e2 b7 4b 3e 52 e1 2a 3c 83 82 23 bf
       -0.44427547 0.19894364 0.010429697 -0.6387102
000150 bf 4a 42 3f 41 85 0a bf 3f b4 03 bf ce 1a 1f bd
       0.75895303 -0.5410958 -0.5144691 -0.038843922
000160 56 e3 5f be f6 69 cf bf dc 8c 2b 3f 16 15 f2 3c
       -0.21864066 -1.6204212 0.6701181 0.02955107
000170 70 e1 c9 be d1 ff 8d 3e d3 28 e8 bc e1 24 0a 3d
       -0.39429808 0.27734235 -0.028339779 0.033726577
000180 aa 36 2e be 10 31 ab 3e 38 34 47 be bf 24 26 be
       -0.1701304 0.3343587 -0.19453514 -0.16224955
000190 cb f8 aa be 7c e2 59 3e 4c 5b 57 3f ad fe f3 be
       -0.3339294 0.21277803 0.8412368 -0.4765524
0001a0 60 bd b2 bd 9d 44 e5 3e 94 99 b6 3e a6 0e 10 3e
       -0.08727527 0.4477891 0.35664046 0.14068088
0001b0 42 37 d3 bd 86 dc 6d be 43 58 9f 3e f4 4d b7 bc
       -0.10313274 -0.23228654 0.31122026 -0.022376038
0001c0 e0 0c 8e 3d 70 a5 a9 3f 46 f8 07 c0 16 2a e4 bd
       0.069360495 1.3253613 -2.1245284 -0.1114084
0001d0 3f 49 0c be b2 b9 f0 bd e2 c7 dc bf fd 38 08 be
       -0.13699816 -0.117541686 -1.7248499 -0.1330299
0001e0 4f 1f 8b 3d bd 04 03 bf c4 ce 99 3e 04 bd 6c 3f
       0.06793081 -0.51179105 0.30040562 0.92475915
0001f0 f5 93 b7 3d 5c 9b 26 bf 69 c3 f5 bc d5 c1 87 be
       0.089637674 -0.6508081 -0.030000405 -0.2651507
000200 a5 b4 8f be 6a f8 4e bf eb 07 b7 3e ad c4 2c 3c
       -0.28067508 -0.808478 0.35748228 0.010544938
000210 eb 4b 3a bd 9d 63 cc 3e 7a c9 b2 bf 37 67 6b 3f
       -0.045482557 0.3991975 -1.3967736 0.9195437
000220 45 c8 91 bf b0 e8 34 be 44 eb 76 be fd 3f 8f bf
       -1.1389242 -0.17666888 -0.24113184 -1.1191403
000230 0f 78 86 3f 54 24 3f 3f 0a 47 cd be dc 7f 86 bc
       1.0505389 0.7466481 -0.4009326 -0.01641839
000240 94 8e da be 6a 78 db be b6 a8 0f bf 42 e2 0a bf
       -0.42686903 -0.42865306 -0.5611681 -0.5425149
000250 f8 0a 07 bf 41 2c 67 3e 91 0a 38 bf 9b f1 60 3d
       -0.5275111 0.22575475 -0.71891123 0.054917913
000260 a5 92 08 be 1c 00 db 3d 31 a1 b4 be 04 f9 15 bd
       -0.1333719 0.1069338 -0.3527923 -0.036614433
000270 12 cc 30 3e 9c 85 ca 3d 3b 64 bd bd 31 dc a6 3e
       0.17265347 0.09888765 -0.09247633 0.32589868
000280 e1 d5 07 bf 40 a4 c9 3e 6b f0 e4 be bf c4 01 bf
       -0.5306073 0.39383125 -0.44714674 -0.50690836
000290 db f9 47 3e 4b 87 df 3d 1d 1e 9c be a8 0c 91 3d
       0.19528906 0.10914477 -0.30491725 0.07082492
0002a0 d0 a5 95 be 86 b1 8a bc 4a 26 0e bf 7f b3 20 3f
       -0.29228067 -0.016930353 -0.55527174 0.6277389
0002b0 60 3e f3 be 65 c5 15 be 0c 2b 3a 3e 42 7a 02 bf
       -0.47508526 -0.14626081 0.18180484 -0.509678
0002c0 77 cc 83 be f2 41 b0 be 94 63 09 bf ad f1 44 bf
       -0.25741932 -0.34425312 -0.5366757 -0.7693127
0002d0 45 4c ca bd 2b c5 0b 3e 1b 48 89 3e 0d 8d 11 be
       -0.098778285 0.13649432 0.26812825 -0.14213963
0002e0 6d 5b 86 3f a9 a5 8f 3e 81 9c 01 be fe fc 94 bd
       1.0496651 0.28056076 -0.12657358 -0.07274817
0002f0 cd 4e f4 3d 35 05 e5 bd 88 9f c5 bc 3d 2b f4 3c
       0.119290926 -0.11182634 -0.024123922 0.029805774
000300 e4 5c cd be d5 8f 83 be 54 66 cf be a6 01 be 3f
       -0.40109932 -0.25695673 -0.40507758 1.4844253
000310 4f 92 fe be 18 dd f9 bd 7e ab 50 be 70 72 63 be
       -0.49721 -0.122003734 -0.20377919 -0.22211623
000320 ad 82 9c be d6 4d 00 bf d3 56 94 3e e0 6f f6 3d
       -0.30568448 -0.5011877 0.28972492 0.12033057
000330 cc 72 eb be 7f 25 ad 3f 97 69 16 3e b1 a1 da be
       -0.4598602 1.3527068 0.14688717 -0.42701486
000340 ad 51 e7 be 56 90 4e 3e 9d 40 8c bd 01 94 af be
       -0.451795 0.20172247 -0.068482615 -0.34292606
000350 e6 3e aa bc ff 0e 8b 3e a8 89 c1 be 36 0a d6 be
       -0.020781945 0.2715988 -0.37800336 -0.41804665
000360 46 01 13 bf 76 fe a5 be 17 e2 c6 bd 7d 05 83 3d
       -0.5742382 -0.324207 -0.09711092 0.06397531
000370 e6 82 ee be f6 cf d3 3e 4e 1d 56 be 82 28 b7 3e
       -0.46584243 0.413696 -0.20909616 0.35773093
000380 dc ce 6c bf ac 3a 3e 3f 07 6c 4a bf 1e f3 ea bc
       -0.9250314 0.74308276 -0.79071087 -0.02868038
000390 03 8f 3a bf 05 06 b3 3e 9b 73 ae bd f8 59 bd be
       -0.7287447 0.3496553 -0.08518144 -0.36982703
0003a0 73 1e b3 be 9c 14 8d bd 87 3f 4b 3f f9 55 b2 be
       -0.34984168 -0.068886966 0.7939381 -0.34831217
0003b0 8d 03 97 be 80 d6 83 3e cf ae e7 3d cb dc 98 be
       -0.29494897 0.25749588 0.11312639 -0.29855952
0003c0 30 92 0d bd 02 51 a5 bd 77 5f 0b bd 3a 68 a4 be
       -0.034563243 -0.08072092 -0.03402659 -0.3211077
0003d0 2c 98 d7 be 88 25 3f 3c 63 59 b3 be 47 fd 70 3e
       -0.42108285 0.011666663 -0.35029134 0.23534118
0003e0 a0 a9 b1 3e a3 24 82 bc ed b6 91 3f a0 65 b5 be
       0.34699726 -0.01588661 1.138395 -0.35429096
0003f0 3a 3f 2c be 1f a8 b0 be 0d 4e 6d 3e d5 d7 6a bf
       -0.16820994 -0.34503266 0.23174305 -0.91735584

regressor.3.bias f4 [128]
000000 16 f1 0c bf 42 2b 4c be 2f 88 8a 3d 0f 42 a9 bd
       -0.5505537 -0.19938377 0.06764256 -0.08264553
000010 0c a3 41 3e 86 4c 60 bd ff a6 76 bd b9 86 df 3d
       0.18909854 -0.05476048 -0.060217854 0.10914368
000020 e6 ca 27 3d 7d ca 3b 3d 8a f1 73 be 75 5d 78 3d
       0.040964983 0.045847405 -0.23822609 0.060636003
000030 94 f3 4e bc 04 37 d7 be c1 70 ce 3c 78 f5 86 3e
       -0.012631316 -0.4203416 0.02520025 0.26359153
000040 72 65 ca bc 21 5b 03 be 39 6f ec be 0b 4f 73 bd
       -0.024706576 -0.12827732 -0.46178606 -0.059401553
000050 e2 66 c8 3d 4d 1b 0d be 3f 76 cb 3d 9d 01 26 3e
       0.09785248 -0.13779946 0.09934663 0.16211553
000060 ee a0 f3 3c 6f b2 39 bf b1 c2 ed be 40 f3 10 be
       0.029739823 -0.72537893 -0.464376 -0.14155293
000070 89 38 88 be 8f bb 55 3d 0e 3f 0a 3d 3f 38 5b 3e
       -0.26605633 0.052180823 0.03375154 0.21408175
000080 77 52 83 3e 57 a4 9c bd 3b eb 1f 3e 9d 3a da 3b
       0.25648853 -0.07648533 0.15617077 0.0066598193
000090 35 ca 69 3e ef 6a f6 bc 8d 72 0c 3d 0b 6d 00 bf
       0.22831042 -0.030080287 0.03428893 -0.50166386
0000a0 e5 04 6d bb ae 64 0b bf a0 a1 e1 3d 36 2a ca bd
       -0.0036166247 -0.544505 0.11017156 -0.09871332
0000b0 0d ff 3d bd 0b 44 6b bc 3e ec d3 bc 93 10 48 bd
       -0.046385814 -0.014359484 -0.025869485 -0.04884393
0000c0 b7 64 74 3e 4c 89 72 3d 2f 4d 90 bd 5e 48 9d bd
       0.23866545 0.059212968 -0.070459716 -0.076798186
0000d0 de fc 26 3e c5 18 88 bd 9b cd 1b bd cd 71 1e bd
       0.16307399 -0.066453494 -0.038037878 -0.038682748
0000e0 94 39 4e 3e c9 35 ca 3d 55 d9 e7 bc 73 d2 1e bd
       0.20139152 0.0987354 -0.028301874 -0.03877492
0000f0 be 4c 96 bd 25 bd 4a bd 94 66 2d 3e c7 6a 10 3e
       -0.07338856 -0.04949679 0.16933662 0.14103232
000100 18 d9 10 3d 24 17 ed 3d d3 16 8b 3d bf c8 be bd
       0.035363287 0.11576679 0.06791463 -0.09315633
000110 45 3a be 3d 5c cc e4 3d 11 bb 0b 3e 21 89 80 3d
       0.09288458 0.11171791 0.13645579 0.06276155
000120 e9 db 10 3d 70 20 77 3e 48 e4 62 3d 37 d2 b6 3c
       0.035365973 0.24133468 0.055393487 0.022317035
000130 81 70 c3 3d 51 ae 94 bc 72 3e d7 3d b8 21 b3 bd
       0.09542943 -0.018149527 0.105099574 -0.08746666
000140 83 17 97 3d 3f f2 15 3e 4b c9 2f 3e 92 98 37 3e
       0.073775314 0.14643191 0.17166631 0.17929295
000150 c0 43 4f 3d 90 94 41 3d 4e 19 a7 bd 3f 81 8d be
       0.05060172 0.04726082 -0.08159123 -0.2763767
000160 81 0e 33 be 62 ae 97 be dc ad ae 3d 8d 2e d7 bd
       -0.17486002 -0.2962523 0.08529255 -0.10506926
000170 a1 98 3d 3d d5 42 18 3e 46 bf 5a bd fc 38 41 3d
       0.046288136 0.14869244 -0.05340507 0.047173485
000180 61 6b 7b bd 28 a9 ac 3d c4 5c b1 3d 34 a4 39 3e
       -0.0613817 0.084307015 0.08660272 0.18129045
000190 29 a8 84 3d eb 5b e5 3c 05 a0 85 3d c0 82 1b bd
       0.064773865 0.027997931 0.06524662 -0.03796649
0001a0 ec 3e 52 3e a6 e9 4c 3e 17 fa 86 3e 74 97 f4 3d
       0.20531815 0.20011005 0.26362678 0.1194295
0001b0 d7 40 24 3c 27 7a 1b 3d aa c0 d3 3c 0c 23 9d 3d
       0.010025225 0.03795829 0.025848705 0.076727
0001c0 4f 54 03 3e 65 77 bb 3d cd 8c dd 3d d2 5d 0c be
       0.1282513 0.09153632 0.10817871 -0.13707665
0001d0 bf ce d8 be 1f 04 17 3e 4d 56 8e bd a3 3a 36 3e
       -0.42345235 0.14747666 -0.06950054 0.17795806
0001e0 ee 6e 8a 3d ab 10 32 be 75 fd 91 bd 94 51 29 bd
       0.067594394 -0.17389171 -0.07128421 -0.041337565
0001f0 89 f9 9d 3d ac b3 00 be 14 7d ef 3d 0e 22 cc bd
       0.07713611 -0.1256854 0.11693779 -0.09967433

regressor.6.weight f4 [15, 128]
000000 9c fc 46 be dd 68 d9 bc 3d 64 e1 bc 46 04 78 bd
       -0.194323 -0.02653926 -0.027513618 -0.06055095
000010 88 bb 88 3c b5 19 13 3c 74 1a 77 3c 94 af 89 3d
       0.016690984 0.008978297 0.0150819905 0.06722942
000020 2d 07 ff 3b 20 ee 61 3c c8 9f 77 bd 7b 95 9f 3e
       0.007782838 0.013789684 -0.060455114 0.31168732
000030 6e e7 8c 3d 84 15 6b 3d 86 7a 90 3d 23 36 07 be
       0.06880079 0.057393566 0.070546195 -0.13204245
000040 0a a8 00 bd 12 ee 37 be 8d 41 00 be 97 ce 36 3e
       -0.031410255 -0.1796191 -0.12525006 0.17852245
000050 52 6e 12 3e ef 14 87 3d d8 4d 1d be db a8 36 3d
       0.14299896 0.0659579 -0.15361726 0.044594627
000060 fe 0c b2 bd d9 78 c9 3d 4c cb 79 3d 3b 53 ae 3c
       -0.08693884 0.09837503 0.060984895 0.021279922
000070 ad 6e 6a 3d dc f4 52 bd cb 54 d6 bd 56 69 8b 3e
       0.057234455 -0.051503047 -0.10465392 0.27228802
000080 77 45 f3 bd b3 2b 04 bd 38 90 5d ba f3 75 25 3c
       -0.11878484 -0.032268237 -0.0008451971 0.010098922
000090 cf 6f 87 be 4b 42 90 3c 6b f5 e8 bd 84 09 fc bc
       -0.2645249 0.017609736 -0.11374935 -0.030766256
0000a0 c4 af 5b 3d 8a bd aa ba d2 e5 c1 bd 58 7e 5c bd
       0.05363442 -0.0013026458 -0.09467663 -0.05383143
0000b0 d2 a2 85 bd 58 fc 0b bd 32 19 a5 3e b1 e6 ac bc
       -0.06525196 -0.0341762 0.32245785 -0.021106096
0000c0 3f 5f b8 3d ee 9a b9 3c 4e ba b2 3b 5f 40 59 be
       0.09002542 0.022656884 0.005454338 -0.21215962
0000d0 89 bb f5 bd dd bf 44 be 5e e1 12 3e e7 05 d0 3d
       -0.1199866 -0.19213815 0.14343783 0.10157376
0000e0 ab 55 c0 3d 91 12 de bd d7 30 26 bd 4b e0 66 3c
       0.0939134 -0.10843385 -0.04057392 0.014091562
0000f0 56 ce 58 bd af b4 d8 3d b1 f3 95 3e c9 1b 1c 3e
       -0.052931152 0.10581338 0.29287484 0.15244974
000100 83 0c 58 3d a2 1d aa 3e 2b b9 2e 3d d7 56 2f bd
       0.052746307 0.33225733 0.04265706 -0.042807426
000110 03 e2 a6 bc 6d 5e 6f 3e a3 6b 40 3d f6 62 3c 3c
       -0.020371443 0.23375864 0.04697765 0.0114982035
000120 79 c9 e8 bc de 2c c3 3d b7 b7 a8 3d b6 6c c4 bc
       -0.028416382 0.09530042 0.08238166 -0.023977619
000130 ea 1c a4 3e a4 11 d0 3d f3 db 1d 3b a0 c1 c4 3d
       0.3205331 0.10159615 0.0024087399 0.096072435
000140 41 b9 a3 3b 76 73 73 3e 80 00 00 be 12 63 1c 3d
       0.004996449 0.23774514 -0.1250019 0.03818042
000150 e2 f1 2b 3b ae 2e c8 3d a5 2d 35 3d ea d1 df 3c
       0.0026236703 0.097745284 0.044232983 0.027321775
000160 0a 7e 1d 3e a0 ff 7c be 25 65 b0 3c de 42 3a be
       0.15380111 -0.24706888 0.021532604 -0.1818957
000170 9b 03 1f be 82 0e 51 be e7 bd 2e bd bf ec d4 3d
       -0.15528719 -0.2041569 -0.042661574 0.10396718
000180 15 c9 84 3d 05 92 6a be 2d 4e 3e 3c 8f f2 83 be
       0.06483666 -0.22907265 0.011615318 -0.25770995
000190 62 a6 b7 bc ab 4d 42 be 5e dd 53 3d ea fd 97 bd
       -0.022418205 -0.1897494 0.051724784 -0.07421477
0001a0 d7 e6 2b 3d 56 77 f0 bb ca 55 5d 3d e2 75 31 bc
       0.041968193 -0.0073384447 0.054036893 -0.010831328
0001b0 f7 46 08 be 64 11 64 bc 5a 33 0e bc af 08 8e bd
       -0.13308321 -0.013920162 -0.008679235 -0.0693525
0001c0 70 09 3e 3d a2 36 04 be 2a 27 74 3d ad 2f 18 3d
       0.04639572 -0.12911466 0.059607662 0.037154842
0001d0 63 dc 39 bd ee d5 98 bd f1 2c ad bd 9a c9 46 be
       -0.045376193 -0.07462679 -0.084558375 -0.19412842
0001e0 33 c0 e9 3e c3 bd 07 3d cb 95 40 3d cc 45 b1 3b
       0.4565445 0.033139955 0.047017854 0.0054099318
0001f0 4d fa 41 bd 33 58 92 bc d1 bf a4 bc b2 50 61 3e
       -0.047357846 -0.017864322 -0.020110996 0.22003439
000200 1d b7 56 be ee 49 83 bd 6a 8a 25 3d 50 9f e2 bd
       -0.2096829 -0.06410585 0.040415205 -0.11065543
000210 8a ae e3 3d e1 cb be bd 63 7d 20 3d 9c 5e d2 bd
       0.11117275 -0.093162306 0.039182078 -0.102719516
000220 59 1d 0a bd 55 09 20 3d b5 3b 4d 3d 29 86 55 3e
       -0.033719394 0.0390714 0.05010577 0.2085196
000230 49 c4 7c 3e 12 17 4a 3e 7b 6a 60 3d 58 d8 db 3c
       0.24684252 0.19735363 0.054789048 0.02683656
000240 81 ae da 3d 77 05 6e ba 90 73 d0 be e6 bf ba bc
       0.10677815 -0.0009079794 -0.40713167 -0.022796582
000250 73 4b 98 bd cc 58 d6 bd 51 c3 0e 3e b7 6c c5 3d
       -0.07436266 -0.104661554 0.13941695 0.09639876
000260 9c c7 28 3e 7a 43 2b be ff 98 56 3d af a8 4c be
       0.16482395 -0.16724959 0.052392002 -0.19986223
000270 b9 1f 8c 3d e6 9c a1 3e 14 d8 aa bd b1 78 4a 3e
       0.06841988 0.31565017 -0.08341995 0.19772603
000280 44 95 45 bc e6 a0 2f bd 65 bd 9b 3d b4 11 37 be
       -0.0120595135 -0.042878054 0.076044835 -0.17877847
000290 1a b2 26 be b1 a6 83 3d 4c 52 16 3e b6 e0 54 bc
       -0.16278878 0.06428278 0.14679831 -0.012993028
0002a0 a6 aa 02 3d 91 3e 1a 3e cc 7a e1 3d be 4e 62 3e
       0.031901024 0.1506293 0.1100975 0.2210035
0002b0 de 83 02 3d 80 32 01 be 1b 53 49 be d9 08 12 be
       0.03186404 -0.1261692 -0.19660608 -0.14261188
0002c0 e9 fd bf 3b 3c 98 de bb cf 16 67 3d 00 46 8d 3b
       0.005859126 -0.00679305 0.056418236 0.004311323
0002d0 eb 67 1e 3e ae 96 a4 bd 50 75 9a 3c 79 4e 13 bd
       0.15469329 -0.08036552 0.018854767 -0.03596351
0002e0 32 04 b8 bd 9e 3e 04 bd be 57 19 be 98 e7 19 3d
       -0.08985175 -0.03228628 -0.14974877 0.03757438
0002f0 ca a3 c9 bd c0 d2 fa bd d5 80 ae bd 7a 9f c6 bd
       -0.098456934 -0.122472286 -0.085206665 -0.096983865
000300 95 e9 19 be 40 ba 70 3d 00 35 7b bc 28 c9 58 bd
       -0.1503051 0.05877137 -0.01533246 -0.052926213
000310 22 ce 97 3c d2 5f 74 be 8f e6 bf bd 16 e8 02 3d
       0.018530909 -0.23864678 -0.093701474 0.031959616
000320 e9 f3 07 be 18 1b 27 3e 78 ab 22 be b7 65 be 3d
       -0.13276638 0.16318929 -0.15885723 0.09296744
000330 62 b7 f3 bd 4d 4c 22 be 0a 6b 3d 3d 30 a0 83 be
       -0.11900212 -0.15849419 0.04624466 -0.2570815
000340 a8 c1 24 be b4 32 34 bd 7b a0 d4 bd 7d ee eb 3d
       -0.16089499 -0.043993667 -0.10382172 0.115200974
000350 41 78 69 3d 11 ff d5 3d 93 a6 be 3d 15 dd 82 3e
       0.05699945 0.10449041 0.09309115 0.25559297
000360 22 9b 0e 3e f8 42 aa 3e 65 ba c4 bd 7f 2b 5a bd
       0.13926366 0.33254218 -0.096058644 -0.053264137
000370 f3 b6 90 3d 90 eb 82 bd 1d 1f 4d bd 56 8a 3c 3d
       0.07066145 -0.06392586 -0.0500785 0.046030365
000380 e0 4d 37 be 52 87 35 bc 2c 4e dc 3d 9c e4 96 bd
       -0.179008 -0.011079626 0.107570976 -0.073678225
000390 87 cd 15 3d 23 d3 83 3c 00 70 cf bd fd 16 14 be
       0.03657296 0.016091889 -0.10128784 -0.14461894
0003a0 a7 c1 c5 bc c7 6d 88 3d 81 f8 a5 3b 3b 61 bf 3d
       -0.024140192 0.06661563 0.0050650244 0.09344717
0003b0 e3 ec bb 3d 3e 5c 14 ba c8 40 9c 3d 29 4c 9e bd
       0.09176042 -0.0005659497 0.076295435 -0.0772937
0003c0 a7 da d4 3d b2 8e 84 bd 37 df b9 3e ef bb 00 3d
       0.10393267 -0.064725295 0.36303112 0.031429227
0003d0 78 4c a7 3d 59 51 d0 3d 4a 21 92 3e fe 20 12 bc
       0.08168882 0.10171766 0.28541023 -0.008918999
0003e0 05 ff 16 3d b1 26 33 bd 4f cd 75 be ee 1d e6 bd
       0.0368643 -0.04373807 -0.240041 -0.112361774
0003f0 b2 c2 b5 3d db d5 47 be 66 59 66 bd e1 4b 95 be
       0.08875026 -0.19515173 -0.0562376 -0.29159454

regressor.6.bias f4 [15]
000000 fe 5b da bc e6 41 93 3c be 72 14 3c c2 bb 1b bd
       -0.026655193 0.017975759 0.00906056 -0.038020857
000010 cf f3 ae 3c 24 7c 5e 3c 2a e8 a4 bc 09 0c 9c 3c
       0.021356491 0.013579402 -0.020130236 0.019048708
000020 9d 43 86 3c f8 67 a8 3c 6e 80 13 3b 09 9e 7f 3c
       0.016389662 0.020557389 0.002250697 0.015601643
000030 3b 27 35 3d 30 77 5e bc 70 37 6e 3c
       0.044226866 -0.013578221 0.0145395845
