pigment_model_bundle_opt39.pt (torch, 295880 bytes, 7 tensors)

pigment_embedding.weight f4 [43, 61]
-0.17165126 -0.09802131 -0.36584714 -0.32114014 -0.22928965 -0.29310095 -0.05328267 0.11559554
-0.19557786 -0.15944707 -0.22359583 -0.20128675 -0.076292135 -0.10393906 -0.0038503876 -0.17221959
-0.15072498 0.036972184 -0.0012372095 -0.053411 0.059846837 0.05622107 0.066914394 0.11041452
0.10185502 0.1072752 0.104170166 0.029172108 -0.13797553 0.17293054 0.013860214 -0.020156844
0.073342115 -0.07127901 0.22228138 0.08128374 -0.84983635 -0.081011795 -0.7658062 -0.83803076
-0.12950121 -0.12247644 0.16375086 -0.048733674 0.354192 -0.14178002 0.28277996 -0.13362496
0.29303676 0.14328064 -0.08160093 -0.061100427 -0.14406596 -0.22699311 0.07854428 0.02009655
0.36601013 0.02845514 -0.1433514 -0.20802023 -0.035442077 -0.17391981 0.090056136 -0.042273372
-0.25691542 -0.052844733 -0.11769205 -0.09159211 0.077301025 -1.0864207 -0.03943701 0.21700537
0.030749826 0.30819887 0.021331774 0.17567448 0.17495298 -0.045999087 0.056269497 -0.054503385
-0.044316214 0.046608392 0.1927902 0.0646504 0.058805145 -0.048592426 -0.23286213 -0.18555169
0.06497062 -0.07518687 0.11137047 0.10894237 -0.01837136 -0.031205075 0.093454674 -0.1360388
-0.08186139 -0.20686579 -0.05337764 -0.14534773 -0.2029467 0.13051154 0.09024844 -2.5376055e-05
0.19109856 0.113794684 -0.009889644 0.11248719 -0.1597379 0.019967198 0.14438425 -0.091692574
0.054931212 -0.07272628 0.57716864 -0.002774519 0.0022848544 0.23360032 0.11103595 0.34845746
0.129101 -0.01147614 0.08706005 0.054228608 0.13527308 0.19595061 -0.04864614 0.095220305
-0.069960564 0.24282032 -0.27103513 -0.28827822 -0.10400346 0.15485838 0.025229359 0.1350695
-0.048553597 -0.09672782 -0.20318212 0.07752891 -0.09073136 -0.0122883925 -0.01940781 -0.017634071
0.027040176 -0.18824029 -0.07900258 -0.05149 -0.09908891 -0.13404338 0.05120024 -0.09800545
-0.23869202 -0.11961148 -0.07820348 -0.2212854 0.14579186 -0.008413797 -0.6288945 -0.37754664
-0.6746477 0.250648 -0.11826065 -0.06251453 -0.0029727586 -0.27442122 0.19166255 -0.09963006
0.10736402 0.060624845 -0.17591418 0.040841836 -0.028095143 0.007553331 -0.100826286 1.4963316
0.36606842 0.032484956 0.31924427 0.29390445 0.17917298 -0.029905718 -0.13677905 -0.24689792
0.04589769 -0.24170168 -0.26325622 -0.07413884 -0.3148344 -0.24586512 0.021485459 0.2039825
0.0859493 -0.05625632 -0.0010179307 -0.06288375 0.06869991 -0.07727359 -0.04714431 0.119551174
-0.1346725 0.13737877 0.022915091 0.07419673 0.15107374 -0.018424153 -0.123587966 -0.117963135
0.036778003 0.014308634 0.026513325 -0.12477194 -0.0270271 -0.15798226 -0.0061496845 -0.01891509
0.1050955 0.09012722 0.18725395 0.6828854 0.4441351 0.72046536 0.07645356 0.2820994
0.016496345 0.00044309147 0.41669643 -0.22164157 0.32656437 -0.1009104 0.19219162 -0.024928933
-0.12045165 0.16852199 0.2715423 0.40695852 -0.63325673 0.091242 0.035942275 -0.041175768
-0.03640369 0.2278862 0.091796316 0.32798937 -0.069194354 0.093285345 -0.043633986 0.067723036
-0.048878264 0.0742413 -0.0907436 -0.008416035 -0.016814185 0.47604147 0.0760486 -0.031643126
00000000: 59c5 2fbe 66bf c8bd 5150 bbbe 7b6c a4be
00000010: e8ca 6abe 5411 96be ee3e 5abd 5bbd ec3d
00000020: 9045 48be 1846 23be 4ef6 64be 1d1e 4ebe
00000030: 0d3f 9cbd 00de d4bd c956 7cbb 555a 30be
00000040: a657 1abe 2570 173d dd29 a2ba 7ec5 5abd
00000050: f521 753d 1148 663d 6a0a 893d 0221 e23d
00000060: 5d99 d03d 1ab3 db3d 2b57 d53d 58fa ee3c
00000070: 7549 0dbe b414 313e f315 633c f71f a5bc
00000080: 6434 963d bbfa 91bd bb9d 633e 1778 a63d
00000090: e08e 59bf 83e9 a5bd e00b 44bf 2f89 56bf
000000a0: f79b 04be eed4 fabd 4eae 273e f69c 47bd
000000b0: a758 b53e c82e 11be 89c8 903e fbd4 08be
000000c0: ea08 963e 29b8 123e 631e a7bd 7144 7abd
000000d0: 0786 13be e270 68be d3db a03d 85a1 a43c
000000e0: ae65 bb3e c11a e93c b6ca 12be 4103 55be
000000f0: b62b 11bd 0918 32be 5a6f b83d d826 2dbd
00000100: 6b8a 83be b873 58bd 8808 f1bd a594 bbbd
00000110: 0050 9e3d d50f 8bbf b488 21bd a836 5e3e
00000120: 0fe7 fb3c 3ecc 9d3e f9bf ae3c 03e4 333e
00000130: e026 333e 8a69 3cbd d87a 663d f13e 5fbd
00000140: eb84 35bd 71e8 3e3d cb6a 453e 6e67 843d
00000150: aadd 703d da08 47bd 6973 6ebe 4301 3ebe
00000160: 510f 853d 93fb 99bd 3316 e43d 2d1d df3d
00000170: 897f 96bc c9a1 ffbc 2a65 bf3d c14d 0bbe
00000180: f2a6 a7bd a0d4 53be 83a2 5abd 09d6 14be
00000190: 42d1 4fbe d1a4 053e 2dd4 b83d aade d4b7
000001a0: 57af 433e 300d e93d 2c08 22bc af5f e63d
000001b0: 5592 23be 4092 a33c 77d9 133e 51c9 bbbd
000001c0: 8dff 603d 84f1 94bd 53c1 133f b4d4 35bb
000001d0: 7fbd 153b ec34 6f3e d166 e33d 0469 b23e
000001e0: 0d33 043e 6b06 3cbc 8a4c b23d d11e 5e3d
000001f0: 0785 0a3e 47a7 483e 2d41 47bd dd02 c33d
00000200: 7c47 8fbd e4a5 783e 1ec5 8abe 3499 93be
00000210: c4ff d4bd 3293 1e3e cdad ce3c a94f 0a3e
00000220: 23e0 46bd 3c19 c6bd f90e 50be 7ac7 9e3d
00000230: 5dd1 b9bd 4155 49bc 21fd 9ebc 5475 90bc
00000240: 5c83 dd3c 10c2 40be 1bcc a1bd 2ee7 52bd
00000250: 20ef cabd ab42 09be 58b7 513d 15b7 c8bd
00000260: ae6b 74be ddf6 f4bd 2529 a0bd a498 62be
00000270: 764a 153e 06da 09bc 3bff 20bf cb4d c1be
00000280: b6b5 2cbf ef54 803e a432 f2bd 9e07 80bd
00000290: 9dd2 42bb f080 8cbe 3043 443e d80a ccbd
000002a0: abe1 db3d c251 783d d922 34be c549 273d
000002b0: c927 e6bc ef81 f73b 037e cebd cb87 bf3f
000002c0: 526d bb3e f20e 053d fc73 a33e a57a 963e
000002d0: 1f79 373e d6fc f4bc cf0f 0cbe cfd2 7cbe
000002e0: 37ff 3b3d a580 77be 85c9 86be 1bd6 97bd
000002f0: f931 a1be 11c4 7bbe 4602 b03c cae0 503e
00000300: 3006 b03d 076d 66bd 166c 85ba 32c9 80bd
00000310: 8ab2 8c3d 9e41 9ebd 641a 41bd 3fd7 f43d
00000320: 96e7 09be 05ad 0c3e 6eb8 bb3c 75f4 973d
00000330: 13b3 1a3e 40ee 96bc b01b fdbd a896 f1bd
00000340: 88a4 163d c36e 6a3c 7932 d93c 6e88 ffbd
00000350: f067 ddbc 1ac6 21be 4b83 c9bb d2f3 9abc
00000360: 4f3c d73d 9f94 b83d 80bf 3f3e 94d1 2e3f
00000370: ad65 e33e 6b70 383f af93 9c3d 556f 903e
00000380: 5823 873c bb4e e839 3c59 d53e 02f6 62be
00000390: 7233 a73e 1daa cebd e1cd 443e c337 ccbc
000003a0: 5baf f6bd 0791 2c3e 9807 8b3e de5c d03e
000003b0: 1d1d 22bf 16dd ba3d 3538 133d eca7 28bd
000003c0: 091c 15bd 005b 693e b5ff bb3d 39ee a73e
000003d0: c5b5 8dbd 630c bf3d 8db9 32bd 60b2 8a3d
000003e0: 9334 48bd d30b 983d c8d7 b9bd 69e3 09bc
000003f0: e7bd 89bc b5bb f33e 5ebf 9b3d 399c 01bd

regressor.0.weight f4 [236, 43]
0.03793129 0.8448051 0.44228774 -0.2188692 -0.09531829 0.74053544 -0.51597047 0.40810913
0.08885234 0.10349269 -0.24271898 -0.0055842064 -0.5853966 0.4155854 0.4627616 -0.03812728
0.27829164 0.27403957 0.10251383 -0.30445448 -0.27506834 -0.11834781 -0.18536018 -0.80553883
-0.13089012 0.47489688 -0.21373588 -0.21632725 -0.075467 0.18669118 0.30904853 0.020330392
-0.75942963 0.21913265 -0.119161285 0.76019645 -0.18421559 -0.38112512 -0.013756374 0.056481708
-0.059911605 -0.69199187 -0.27745667 0.037470184 0.13943303 0.06842723 -0.06724106 0.03719994
-0.21859667 0.11937568 0.055243988 -0.22378908 0.36865816 0.16148919 0.047648385 0.35152227
-0.109897226 0.08375813 -0.122568525 0.058603548 -0.21821545 -0.19111736 0.37091926 0.1419663
0.11549646 0.078930065 0.22035535 0.01011094 -0.08707131 0.30816785 -0.10324794 -0.45866904
0.038723275 0.2725425 -0.24110754 0.3419037 -0.132897 -0.08737785 -0.11857525 -0.047936328
-0.12544242 0.10380185 -0.072945364 0.09655789 -0.0064863 0.25388625 -0.055007428 -0.23888603
-0.22104318 0.19623235 0.06376484 -0.15106341 -0.098936096 0.14280692 -0.08464122 -0.43085477
-0.071984366 -0.0781357 -0.16313641 -0.35234538 0.16677131 0.22327518 -0.0017751708 -0.18383753
0.043532938 -0.1865399 0.12583598 0.016644515 0.1743586 0.18565086 -0.21544152 -0.033970706
-0.027209198 0.2676976 0.2339917 0.0051690736 0.00197206 0.049163558 -0.08936012 0.26787132
-0.0143416235 -0.096434146 -0.0926012 -0.3127722 -0.0721796 0.39836743 0.04660869 -0.073584266
-0.19459565 -0.35158455 -0.2975754 0.018734563 0.31410307 0.15759838 -0.26348585 0.5220323
-0.41917646 -0.052107524 0.0015747398 0.34241185 0.08396863 -0.27594092 0.27171022 -0.36488226
-0.18415807 -0.07978344 0.23396015 0.041479036 0.038026366 0.27133995 0.33446422 0.03706853
0.4242675 0.1714716 0.215587 0.017911568 0.51168823 0.13635926 -0.27354145 -0.7473121
-0.35598558 0.423892 0.23274146 0.3506537 -0.19487076 0.2975027 -0.0007621312 -0.18113214
0.422176 0.5615266 -0.35861626 -0.2874067 -0.012600535 -0.11307103 -0.08752639 -0.07311995
0.29353455 -0.057867024 0.08397031 0.23587038 0.009137654 0.26001114 -0.1623557 -0.3954482
-0.051681224 0.25624996 -0.26578245 -0.32693702 -0.09271956 -0.24541774 -0.3079237 0.22607611
0.025114708 0.22264771 -0.19329584 -0.1576934 -0.21949878 0.10948854 -0.09409461 0.07854051
-0.45812753 0.28997073 0.12694447 -0.107724495 -0.0056449743 -0.1167211 -0.057007667 -0.01180358
0.16287483 -0.027032506 0.15768905 -0.40287617 -0.14232218 0.2246485 0.13341442 0.13444985
0.09670122 0.17866251 -0.05584556 -0.10969738 0.0063875103 0.04984067 0.009495191 -0.01356079
0.19139455 -0.13481241 -0.09556149 0.1616235 0.18339911 -0.09138094 -0.14043376 0.10310726
-0.15887862 -0.20292625 0.38299578 -0.046144024 0.1239505 -0.13793676 -0.19558153 -0.013012131
0.17137602 0.38495287 -0.19688503 -0.37252563 0.07368878 -0.053122118 -0.124621645 0.33426067
-0.1991647 0.036426876 0.0053046746 0.043698926 -0.010676889 0.033085015 -0.10152799 0.2079043
00000000: d75d 1b3d 2645 583f 8a73 e23e 3f1f 60be
00000010: 3c36 c3bd bb93 3d3f a416 04bf aef3 d03e
00000020: 37f8 b53d faf3 d33d 538b 78be b8fb b6bb
00000030: 8ddc 15bf 9cc7 d43e 17ef ec3e 5a2b 1cbd
00000040: 3e7c 8e3e ea4e 8c3e c5f2 d13d 75e1 9bbe
00000050: c2d5 8cbe 5660 f2bd 0fcf 3dbe cb37 4ebf
00000060: 0f08 06be af25 f33e 94dd 5abe e484 5dbe
00000070: 718e 9abd f92b 3f3e 9c3b 9e3e ec8b a63c
00000080: fb69 42bf 4f64 603e d50a f4bd 3c9c 423f
00000090: 03a3 3cbe d522 c3be 6a62 61bc 5d59 673d
000000a0: df65 75bd 6126 31bf cd0e 8ebe 567a 193d
000000b0: 88c7 0e3e 9323 8c3d aeb5 89bd f75e 183d
000000c0: ced7 5fbe 3d7b f43d 8547 623d f728 65be
000000d0: c3c0 bc3e 6c5d 253e f42a 433d bafa b33e
000000e0: cc11 e1bd 6289 ab3d 3505 fbbd 460a 703d
000000f0: df73 5fbe 45b4 43be 21e9 bd3e 9d5f 113e
00000100: 6889 ec3d 16a6 a13d d5a4 613e 5ba8 253c
00000110: 7152 b2bd 2dc8 9d3e a873 d3bd abd6 eabe
00000120: 4c9c 1e3d b18a 8b3e e5e4 76be 000e af3e
00000130: 2716 08be 29f3 b2bd 95d7 f2bd e258 44bd
00000140: fa73 00be 1096 d43d 6164 95bd 25c0 c53d
00000150: 078b d4bb 61fd 813e 784f 61bd 8a9e 74be
00000160: 2559 62be 22f1 483e 2497 823d 5eb0 1abe
00000170: 029f cabd fa3b 123e 6058 adbd ff98 dcbe
00000180: 8a6c 93bd 9c05 a0bd 3b0d 27be 9d66 b4be
00000190: 19c6 2a3e 40a2 643e d9ac e8ba e83f 3cbe
000001a0: 984f 323d 5104 3fbe 26db 003e 145a 883c
000001b0: 108b 323e 421b 3e3e b49c 5cbe de24 0bbd
000001c0: d3e5 debc a90f 893e 859b 6f3e 5561 a93b
000001d0: ad3d 013b ba5f 493d 7002 b7bd 6e26 893e
000001e0: 21f9 6abc 447f c5bd b3a5 bdbd ae23 a0be
000001f0: e6d2 93bd d1f6 cb3e c1e8 3e3d 59b3 96bd
00000200: 1544 47be e402 b4be ce5b 98be 3a79 993c
00000210: 1ed2 a03e 7861 213e 9ee7 86be e9a3 053f
00000220: 4c9e d6be b36e 55bd 8067 ce3a 9b50 af3e
00000230: bff7 ab3d 2148 8dbe 9a1d 8b3e d9d1 babe
00000240: ef93 3cbe 8065 a3bd 4093 6f3e ece5 293d
00000250: 89c1 1b3d 12ed 8a3e e53e ab3e 2cd5 173d
00000260: 9739 d93e 4096 2f3e d7c2 5c3e 48bb 923c
00000270: 00fe 023f c3a1 0b3e a00d 8cbe d94f 3fbf
00000280: be43 b6be 5f08 d93e c753 6e3e e288 b33e
00000290: 338c 47be 4652 983e c2c9 47ba b47a 39be
000002a0: 7427 d83e 35c0 0f3f 8d9c b7be f926 93be
000002b0: 7972 4ebc c991 e7bd 0941 b3bd eabf 95bd
000002c0: 294a 963e f905 6dbd a0f8 ab3d 0188 713e
000002d0: 19b6 153c 2e20 853e 9340 26be 3078 cabe
000002e0: b1af 53bd 3233 833e a314 88be 4a64 a7be
000002f0: c1e3 bdbd ca4e 7bbe 2da8 9dbe 7f80 673e
00000300: 5cbd cd3c c3fd 633e 58ef 45be 617a 21be
00000310: 4ac4 60be 873b e03d adb4 c0bd d9d9 a03d
00000320: b18f eabe 0b77 943e bbfd 013e a99e dcbd
00000330: 7af9 b8bb 790b efbd df80 69bd ce63 41bc
00000340: a9c8 263e 4673 ddbc 3d79 213e c945 cebe
00000350: e8bc 11be 420a 663e ca9d 083e 39ad 093e
00000360: 4a0b c63d 4ef3 363e 50be 64bd 05a9 e0bd
00000370: 524e d13b bb25 4c3d b891 1b3c 132e 5ebc
00000380: effc 433e 440c 0abe beb5 c3bd a180 253e
00000390: facc 3b3e ee25 bbbd decd 0fbe e629 d33d
000003a0: 14b1 22be e6cb 4fbe 0618 c43e 8401 3dbd
000003b0: c2d9 fd3d 4b3f 0dbe 8646 48be d530 55bc
000003c0: 327d 2f3e 8b18 c53e 3b9c 49be aebb bebe
000003d0: 25ea 963d 9496 59bd a239 ffbd 3724 ab3e
000003e0: d5f1 4bbe 5934 153d d6d2 ad3b a5fd 323d
000003f0: 1eee 2ebc 2784 073d e8ed cfbd dde4 543e

regressor.0.bias f4 [236]
-0.11410573 -0.110043265 0.14139593 0.2744109 -0.05027961 -0.036601268 -0.025177743 -0.20914932
-0.0915635 0.009964968 -0.088462576 0.0036932062 0.034005992 0.013283926 -0.11360376 0.1766345
-0.072566524 -0.26332793 0.23228665 0.19070825 -0.0990248 0.07533868 0.046181686 0.14325011
-0.017523967 0.025566753 0.004127902 -0.051166963 0.32214114 -0.010096704 -0.027660232 -0.08139636
0.22303751 0.006291589 0.04318997 -0.1212494 0.010441486 -0.099405296 -0.014454732 0.10713448
0.096682236 0.02080198 0.20322363 0.20597443 -0.021134887 0.12274181 -0.11588918 0.054313827
0.00424958 0.14167719 0.07137024 -0.011694795 -0.045699243 0.007914942 -0.17515396 -0.14060336
0.09555303 -0.07639355 0.017428083 0.017638747 -0.07038942 0.18038653 -0.016815212 0.020575548
-0.034176067 0.018299785 -0.0874551 -0.18859558 -0.048790146 -0.066698395 0.0908296 -0.0010475323
-0.23991746 0.1748345 0.062027592 -0.1412678 0.05781001 -0.080172606 -0.09262052 0.10461368
-0.0055668578 0.046642162 -0.08689209 -0.2408735 -0.040732972 -0.06273534 0.007474007 -0.016739475
0.06859029 -0.29202724 -0.03948316 0.104711294 -0.15002221 0.009988228 0.04768746 0.12601876
-0.036690116 0.08086894 0.15263276 -0.076598346 0.026648974 -0.20171633 0.037150484 0.075416096
-0.06760516 -0.13443688 -0.06363044 -0.058609556 -0.09876864 -0.044627476 -0.09993997 0.055404663
-0.0017579715 0.058667187 0.00857439 0.15271465 -0.0803573 -0.052324917 -0.104738064 -0.12745231
0.0005133068 -0.013061524 0.08391716 0.0017288828 0.03247024 0.22822082 0.12623887 0.05649928
-0.23358494 -0.0031761825 0.07255062 -0.12990315 0.07602405 -0.1460627 0.17761363 0.079745606
-0.18803442 0.054207407 0.010267425 0.23527157 -0.31018078 0.05327147 -0.19015066 -0.040647957
-0.03221174 -0.034761768 0.124710634 -0.042673968 -0.0626805 0.10977952 0.023292722 0.14521234
0.035345268 0.009192484 0.06540489 0.115088485 -0.04737373 0.08443548 0.08283625 0.011470016
0.040134747 0.0632285 0.1141393 0.17329402 0.05098365 -0.11458623 0.03028956 -0.1266019
-0.0037147647 -0.01772314 -0.16727373 -0.09619115 0.09284925 0.07991123 -0.2239058 -0.09117855
-0.2796788 -0.08047654 -0.13912043 -0.039353028 -0.057233233 0.10903772 0.19162326 0.07342674
-0.012338238 -0.13031316 0.16192561 0.14868349 -0.11395477 0.17972966 -0.12644188 -0.055061895
0.17186907 -0.25694084 0.15669979 0.08304527 -0.1640587 0.010782819 0.009984609 0.029371297
0.10629538 -0.018396407 0.23327824 -0.3079146 0.0028157542 0.011532006 -0.038804516 -0.13910188
0.050776318 0.046171155 0.07280622 0.15601337 0.30070394 0.09624613 0.2192778 0.08773603
-0.12838756 -0.20202878 -0.053499047 -0.11031999 -0.124968745 0.022980409 0.106198795 -0.19459839
0.00961614 0.0054834913 -0.025944417 0.11758314 -0.02524695 0.019637035 -0.06887005 0.052388426
0.23628438 0.009895358 0.073820874 -0.072427474
00000000: 44b0 e9bd 5d5e e1bd 18ca 103e 967f 8c3e
00000010: fef1 4dbd 36eb 15bd 8e41 cebc 3d2b 56be
00000020: a585 bbbd 1b44 233c de2b b5bd b809 723b
00000030: de49 0b3d d3a4 593c 17a9 e8bd addf 343e
00000040: c29d 94bd ebd2 86be 8ddc 6d3e 0649 433e
00000050: 84cd cabd 2a4b 9a3d 0229 3d3d 28b0 123e
00000060: 6c8e 8fbc 5e71 d13c 5a43 873b 7394 51bd
00000070: afef a43e a56c 25bc b697 e2bc 23b3 a6bd
00000080: f263 643e ac29 ce3b f7e7 303d 9b51 f8bd
00000090: c412 2b3c 0195 cbbd 8ad3 6cbc 5269 db3d
000000a0: 5601 c63d ea68 aa3c db19 503e f6ea 523e
000000b0: 1223 adbc 0f60 fb3d 4e57 edbd 2d78 5e3d
000000c0: 1040 8b3b d313 113e 8f2a 923d 879b 3fbc
000000d0: 212f 3bbd acad 013c 8f5b 33be 54fa 0fbe
000000e0: 4fb1 c33d 3974 9cbd 57c5 8e3c 227f 903c
000000f0: 5428 90bd 3fb7 383e 0ec0 89bc 0d8e a83c
00000100: 34fc 0bbd 6ee9 953c a91b b3bd 331f 41be
00000110: 2dd8 47bd 2b99 88bd df04 ba3d 5a4d 89ba
00000120: ecac 75be d107 333e a510 7e3d 82a8 10be
00000130: 30ca 6c3d 8931 a4bd d4af bdbd b23f d63d
00000140: 306a b6bb da0b 3f3d 7bf4 b1bd 8ba7 76be
00000150: 9ed7 26bd 637b 80bd 84e8 f43b 3921 89bc
00000160: 1179 8c3d 9884 95be 18b9 21bd e072 d63d
00000170: 6c9f 19be aaa5 233c ed53 433d 100b 013e
00000180: 6048 16bd 9d9e a53d c34b 1c3e 98df 9cbd
00000190: f34e da3c ba8e 4ebe 1b2b 183d c173 9a3d
000001a0: 9374 8abd d2a9 09be ad50 82bd 9310 70bd
000001b0: 3647 cabd 4dcb 36bd 54ad ccbd 00f0 623d
000001c0: bc6b e6ba 014d 703d 997b 0c3c 3b61 1c3e
000001d0: 5e92 a4bd a752 56bd e980 d6bd dc82 02be
000001e0: 708f 063a 0100 56bc c3dc ab3d ae9b e23a
000001f0: 84ff 043d b8b2 693e c344 013e ca6b 673d
00000200: e430 6fbe 8027 50bb 6b95 943d 5505 05be
00000210: 7fb2 9b3d 7691 15be 59e0 353e aa51 a33d
00000220: 188c 40be 9608 5e3d b438 283c 08eb 703e
00000230: 04d0 9ebe 2f33 5a3d dbb6 42be 797e 26bd
00000240: 75f0 03bd 5b62 0ebd 4a68 ff3d e6ca 2ebd
00000250: a25e 80bd 16d4 e03d 61d0 be3c 8bb2 143e
00000260: 33c6 103d 139c 163c 00f3 853d 83b3 eb3d
00000270: f50a 42bd 82ec ac3d 0da6 a93d bcec 3b3c
00000280: 5564 243d f27d 813d dec1 e93d fd73 313e
00000290: 3bd4 503d 2fac eabd d021 f83c eea3 01be
000002a0: 6973 73bb 1e30 91bc ce49 2bbe deff c4bd
000002b0: bf27 be3d 80a8 a33d 9047 65be d2bb babd
000002c0: 0f32 8fbe e2d0 a4bd 9675 0ebe a430 21bd
000002d0: 656d 6abd 2b4f df3d e338 443e c260 963d
000002e0: 5226 4abc d070 05be d4cf 253e 7c40 183e
000002f0: 1e61 e9bd 0d0b 383e fb79 01be 9588 61bd
00000300: 72fe 2f3e c08d 83be e975 203e a313 aa3d
00000310: 01ff 27be 6caa 303c 7c96 233c 139c f03c
00000320: 64b1 d93d 10b4 96bc 7ee0 6e3e fca6 9dbe
00000330: 8488 383b bdf0 3c3c 7cf1 1ebd b970 0ebe
00000340: d4fa 4f3d f71d 3d3d 6d1b 953d f8c1 1f3e
00000350: def5 993e b11c c53d 5c8a 603e f3ae b33d
00000360: 0778 03be a2e0 4ebe d121 5bbd 72ef e1bd
00000370: 9def ffbd 6941 bc3c c17e d93d cd44 47be
00000380: 048d 1d3c dcae b33b 6389 d4bc 6ecf f03d
00000390: b1d2 cebc d9dd a03c be0b 8dbd 3f95 563d
000003a0: 88f4 713e 2420 223c 662f 973d db54 94bd

regressor.3.weight f4 [236, 236]
0.33911118 -0.15220831 -0.18071963 -0.13835728 -0.13613231 -0.012527083 0.101413414 0.2467275
-0.012974604 -0.10207207 0.16868068 0.13167153 0.13913377 -0.31446218 0.10548555 -0.026900796
0.43412992 0.13147087 -0.061625414 0.005658991 -0.08901197 0.03729385 -0.087430276 0.10045268
-0.11847638 0.07848186 0.15949337 -0.2522927 -0.14015213 0.0073917666 0.05315441 0.20970416
-0.037807524 0.049555074 0.09833852 -0.030970572 -0.00023761847 0.059580073 -0.16261066 0.021157857
0.0036984961 0.102273196 -0.051170785 -0.015814923 0.089416765 0.10545008 -0.044161674 0.050905257
-0.05937898 -0.27747205 0.012773556 -0.06492921 0.124692544 0.18346126 0.08264331 0.32383114
-0.024046151 0.17477044 0.0217097 0.04061331 0.03547779 -0.10623545 0.07205383 -0.029974623
0.071870856 0.14911233 0.42162743 0.08864373 -0.21751767 -0.13421527 -0.08165175 0.25526437
0.091472164 -0.071208194 -0.10969489 0.052320905 -0.052168977 -0.15930536 -0.013472964 0.0013670854
0.09351527 -0.1854574 0.33226836 -0.12226708 -0.03185593 0.055590067 0.00529321 0.13349889
-0.2685199 0.31497076 0.04022497 0.11308944 -0.23204327 -0.036212098 -0.2658995 -0.120741524
-0.059112012 -0.18917733 0.09932945 -0.09853202 0.047369957 -0.013984073 -0.03299362 -0.07389162
0.19723924 -0.12406417 0.026267154 0.07915164 -0.15160841 0.09820179 0.12323287 -0.11722667
0.16018112 -0.055467993 -0.045764875 0.07655893 -0.23510076 0.064302854 -0.24057193 0.0903112
0.088751644 -0.104050495 -0.0828341 0.089581385 0.08372559 -0.07071891 0.058669504 0.19524743
0.11486289 -0.03153625 -0.030957542 0.049104314 0.11116673 -0.055283528 -0.0930389 -0.1376947
0.06268485 -0.16367969 0.009840225 -0.15906449 0.08257349 0.014328459 -0.23592277 0.08644736
0.14581388 0.04640444 -0.044399388 0.023697866 0.0077111 0.15146261 -0.03904444 -0.17257209
-0.18365629 0.18550794 -0.09682992 0.1042653 0.03584762 -0.023202904 0.012632232 0.057491146
0.14602147 0.14098324 0.087609865 0.13855825 0.092868835 0.014258502 -0.043486454 0.12057307
0.05933089 0.23814449 0.075488396 -0.054571413 -0.10425578 -0.005864429 -0.12499835 -0.05433709
0.026844922 -0.3410794 -0.18209237 0.09724065 0.05908615 0.055834208 0.085421674 -0.113716416
-0.05876951 -0.001819834 0.16694814 0.0115093775 0.08894926 -0.038095284 0.06449713 0.19061333
-0.027339002 -0.10502532 -0.03286224 0.10200398 0.022940384 0.004870733 0.05734624 -0.041605115
-0.22333047 -0.042411532 -0.11624072 -0.06780226 0.015436447 -0.12437134 0.11262963 0.066899896
-0.009879313 0.056519255 0.12048685 0.08089827 -0.060467284 0.18769486 -0.08865903 -0.18519819
-0.009445632 -0.05641149 0.1299283 0.01825946 0.056239586 -0.19952676 -0.027015625 0.029305305
-0.048873078 -0.20526278 0.053661354 -0.038219873 -0.0797214 0.14457971 0.033581194 0.14807412
-0.102779776 -0.030449 -0.06277034 -0.17515548 0.079601005 -0.059908308 0.09533428 -0.029150903
-0.10696747 -0.078961775 0.06730465 -0.07668518 -0.19699739 -0.04960951 0.15332916 0.13353197
-0.20527068 -0.08250448 -0.03466663 -0.061780896 -0.16998832 0.14257036 -0.056191258 0.04314893
00000000: fb9f ad3e 7fdc 1bbe 910e 39be 88ad 0dbe
00000010: 4566 0bbe 653e 4dbc d6b1 cf3d 22a6 7c3e
00000020: 6f93 54bc 290b d1bd a1ba 2c3e e7d4 063e
00000030: 1579 0e3e 3001 a1be cf08 d83d 0f5f dcbc
00000040: 4746 de3e 4da0 063e ee6a 7cbd 0f6f b93b
00000050: e84b b6bd 70c1 183d a50e b3bd 22ba cd3d
00000060: bfa3 f2bd 19bb a03d 3b52 233e 822c 81be
00000070: 0a84 0fbe a236 f23b 70b8 593d b0bc 563e
00000080: 10dc 1abd 43fa 4a3d b565 c93d ffb5 fdbc
00000090: 3929 79b9 3c0a 743d 6983 26be 3e53 ad3c
000000a0: 7862 723b 9c74 d13d 7598 51bd 4c8e 81bc
000000b0: 2320 b73d 36f6 d73d dfe2 34bd 0882 503d
000000c0: 6037 73bd d110 8ebe 2d48 513c 9bf9 84bd
000000d0: ce5e ff3d 45dd 3b3e e540 a93d 32cd a53e
000000e0: 6ffc c4bc 06f7 323e 8ad8 b13c 245a 263d
000000f0: 2951 113d f991 d9bd f590 933d 578d f5bc
00000100: 0731 933d e7b0 183e 8ddf d73e d88a b53d
00000110: f4bc 5ebe ba6f 09be 0839 a7bd 03b2 823e
00000120: c255 bb3d 9ad5 91bd b7a7 e0bd 724e 563d
00000130: 23af 55bd f220 23be b5bd 5cbc c62f b33a
00000140: ef84 bf3d 8be8 3dbe 141f aa3e 2a67 fabd
00000150: 5d7b 02bd 69b2 633d aa72 ad3b efb3 083e
00000160: 717b 89be d943 a13e f0c2 243d 709b e73d
00000170: c09c 6dbe 2353 14bd fb23 88be 5547 f7bd
00000180: 701f 72bd b4b7 41be 3d6d cb3d 28cb c9bd
00000190: 0007 423d 741d 65bc 5124 07bd 7d54 97bd
000001a0: 15f9 493e 5b15 febd 372e d73c 411a a23d
000001b0: 3c3f 1bbe 051e c93d 8461 fc3d 8914 f0bd
000001c0: 8506 243e 6832 63bd f373 3bbd eeca 9c3d
000001d0: 41be 70be 37b1 833d 7d58 76be 14f5 b83d
000001e0: 6cc3 b53d 6d18 d5bd eda4 a9bd 7276 b73d
000001f0: 5278 ab3d 13d5 90bd 6f4f 703d f1ee 473e
00000200: 3c3d eb3d 282c 01bd ac9a fdbc 9b21 493d
00000210: 62ab e33d fb70 62bd 2e8b bebd d7ff 0cbe
00000220: ea60 803d a69b 27be e538 213c cde1 22be
00000230: 4a1c a93d eac1 6a3c bd95 71be 500b b13d
00000240: 3c50 153e 9512 3e3d 22dc 35bd 0722 c23c
00000250: 65ad fc3b 0419 1b3e 10ed 1fbd bdb6 30be
00000260: 6510 3cbe cbf5 3d3e c44e c6bd 0c89 d53d
00000270: f4d4 123d 0414 bebc 6cf7 4e3c d67b 6b3d
00000280: a786 153e e95d 103e cd6c b33d 37e2 0d3e
00000290: 0432 be3d 7e9c 693c da1e 32bd 04ef f63d
000002a0: f304 733d 26dc 733e a999 9a3d 4686 5fbd
000002b0: 0e84 d5bd 652a c0bb 23ff ffbd 9290 5ebd
000002c0: e2e9 db3c f6a1 aebe 6c76 3abe 1b26 c73d
000002d0: 5204 723d 69b2 643d 8ff1 ae3d 27e4 e8bd
000002e0: 4cb8 70bd 7f87 eeba 74f4 2a3e d491 3c3c
000002f0: 082b b63d cd09 1cbd 1217 843d 2430 433e
00000300: 0bf6 dfbc 8417 d7bd 8e9a 06bd 76e7 d03d
00000310: 79ed bb3c ab9a 9f3b e4e3 6a3d 206a 2abd
00000320: beb0 64be b7b7 2dbd 9d0f eebd e9db 8abd
00000330: 27e9 7c3c 67b6 febd 5daa e63d d002 893d
00000340: d8dc 21bc bc80 673d cfc1 f63d fead a53d
00000350: 8bac 77bd 1533 403e de92 b5bd 98a4 3dbe
00000360: dac1 1abc bc0f 67bd ed0b 053e dd94 953c
00000370: 7b5b 663d be50 4cbe df4f ddbc ae11 f03c
00000380: 232f 48bd 6830 52be 02cc 5b3d 718c 1cbd
00000390: f944 a3bd b40c 143e 6f8c 093d bea0 173e
000003a0: 347e d2bd 2e70 f9bc bc8d 80bd f55b 33be
000003b0: da05 a33d 6a62 75bd 9e3e c33d e0cd eebc
000003c0: c311 dbbd b6b6 a1bd 05d7 893d 1f0d 9dbd
000003d0: afb9 49be 5733 4bbd 5202 1d3e 9bbc 083e
000003e0: 7a32 52be 1cf8 a8bd 99fe 0dbd f70d 7dbd
000003f0: 6b11 2ebe f7fd 113e ce28 66bd efbc 303d

regressor.3.bias f4 [236]
0.028800141 -0.07838029 0.029867847 -0.033984058 0.037197165 -0.06834295 -0.013948785 -0.031573128
-0.063282646 0.017535692 0.03830017 -0.00012611233 -0.022683 -0.038323212 0.050361373 0.027248548
0.005329598 -0.3494565 0.03181796 -0.07692726 0.018093813 -0.07445305 -0.034351 -0.018402733
-0.08925823 -0.05979354 -0.010126984 -0.122904524 -0.020504132 0.03174928 0.014511622 0.029776199
-0.0037948235 -0.08643977 -0.060331628 -0.10577595 -0.015179423 -0.022518056 -0.011866271 -0.03975708
-0.06960709 -0.021640388 -0.20153995 -0.013222557 -0.111558594 -0.05134663 -0.04180341 0.008936336
0.03547869 0.0066610123 -0.041719045 -0.030679781 -0.1472422 0.05685884 -0.00062773516 0.044381958
-0.022764338 0.0132728685 0.015087387 0.052923292 -0.071719274 -0.11388569 0.0022291231 0.012895341
0.008913156 -0.06254243 0.031914096 0.043676734 -0.04500236 -0.05691658 0.0054301536 -0.07281783
-0.012535468 -0.09556787 0.015985891 -0.44327193 0.024106923 -0.03631427 -0.014936307 -0.17426807
-0.19457139 -0.05156615 -0.01842943 -0.120708 0.015455701 -0.040720124 -0.18031843 -0.004015545
0.011370688 0.0239478 -0.021150004 -0.017304508 -0.015514148 -0.08558803 -0.053150948 -0.031105127
0.015274729 -0.058921862 -0.36186033 0.044962894 -0.042944632 -0.0053422176 -0.35168073 -0.016192436
0.04571807 0.034102075 -0.7116799 -0.46282622 0.02698048 -0.012899954 0.01010462 -0.073973745
0.012166237 -0.025702069 -0.049696032 0.0059338617 -0.048803423 -0.04808664 0.033801213 -0.06286507
-0.07579095 0.026395433 -0.0128207635 -0.2688565 0.001695952 -0.1623167 -0.016142493 0.0075419703
-0.03158909 0.040794406 0.068078145 0.09196722 -0.021889204 -0.13741028 0.0042215683 -0.07865237
-0.06364726 0.015821071 0.0077972566 -0.097622074 -0.07016114 -0.03897422 0.1053077 0.018746706
-0.0043816934 -0.03179439 -0.118030354 0.053914912 0.0703067 -0.069495216 -0.029205492 -0.14328483
-0.01191943 -0.027627856 -0.018089458 -0.05299764 -0.010439471 -0.014019699 0.049695548 0.0718732
0.036841355 0.024333382 0.016843114 -0.059256174 -0.062198803 -0.26327604 -0.019735722 -0.046988588
-0.05550082 0.0141691435 0.0050043426 -0.1557198 -0.02664683 0.020832594 -0.0069718217 -0.008313033
0.012703038 -0.08059006 0.035963062 0.02368354 -0.027536785 -0.07674689 -0.06175298 0.05383561
-0.011279535 -0.0078946175 -0.047968566 0.07341628 -0.073820524 0.009992827 -0.022470772 -0.029350366
-0.023719853 -0.03786737 -0.055748105 0.033032503 -0.0765738 -0.0138317095 -0.01533804 -0.009143791
-0.010607153 0.017015621 -0.019237887 -0.16203983 -0.0050411914 -0.10846114 0.007776075 0.039714847
-0.034293044 -0.13438815 -0.07858926 0.0001696199 -0.25256678 -0.16445425 -0.02237674 -0.076555885
-0.04376729 0.007974988 0.07211548 0.040406585 -0.25322574 -0.10185647 -0.03513621 -0.02951455
0.007362289 -0.0049526384 -0.09240965 -0.081287995 -0.041037932 -0.022377465 -0.011544043 -0.14518394
-0.05501281 -0.08267905 -0.04950982 -0.12614669
00000000: 46ee eb3c d885 a0bd 6aad f43c de32 0bbd
00000010: 0e5c 183d 63f7 8bbd 7289 64bc d352 01bd
00000020: 559a 81bd 03a7 8f3c a4e0 1c3d 053d 04b9
00000030: b3d1 b9bc cdf8 1cbd ba47 4e3d 5938 df3c
00000040: e9a3 ae3b f6eb b2be 8d53 023d 0a8c 9dbd
00000050: 7a39 943c d77a 98bd a2b3 0cbd 54c1 96bc
00000060: 05cd b6bd 12ea 74bd a6eb 25bc 5eb5 fbbd
00000070: 48f8 a7bc 880b 023d 27c2 6d3c 37ed f33c
00000080: 93b2 78bb 5607 b1bd 4c1e 77bd 10a1 d8bd
00000090: 1db3 78bc c977 b8bc bf6a 42bc 52d8 22bd
000000a0: 298e 8ebd 2f47 b1bc 7d60 4ebe 6ca3 58bc
000000b0: d578 e4bd d850 52bd 0d3a 2bbd b669 123c
000000c0: 1a52 113d 9f44 da3b 97e1 2abd 2a54 fbbc
000000d0: a9c6 16be d1e4 683d 988e 24ba dbc9 353d
000000e0: 477c babc 7276 593c 1631 773c 18c6 583d
000000f0: 8ee1 92bd e73c e9bd 7b16 123b fb46 533c
00000100: 7c08 123c 3f16 80bd 5bb8 023d 60e6 323d
00000110: 6554 38bd 5c21 69bd 6eef b13b 8421 95bd
00000120: 9061 4dbc 16b9 c3bd d8f4 823c 8af4 e2be
00000130: e27b c53c 46be 14bd 6ab7 74bc 5473 32be
00000140: b93d 47be 0737 53bd 51f9 96bc c235 f7bd
00000150: e939 7d3c 25ca 26bd 65a5 38be d594 83bb
00000160: 1f4c 3a3c 2d2e c43c c642 adbc 2fc2 8dbc
00000170: 0e2f 7ebc c748 afbd cfb4 59bd 2ed0 febc
00000180: db42 7a3c 0d58 71bd c245 b9be 032b 383d
00000190: b6e6 2fbd c50d afbb 7f0f b4be 00a6 84bc
000001a0: df42 3b3d 9eae 0b3d a730 36bf 8ff7 ecbe
000001b0: 2b06 dd3c 545a 53bc d98d 253c 8c7f 97bd
000001c0: e654 473c 258d d2bc 118e 4bbd d770 c23b
000001d0: 19e6 47bd 7ff6 44bd 2473 0a3d 67bf 80bd
000001e0: 4938 9bbd 3c3b d83c 2e0e 52bc 8fa7 89be
000001f0: b54a de3a 5936 26be 433d 84bc a222 f73b
00000200: 9063 01bd 0918 273d 8e6c 8b3d 4f59 bc3d
00000210: fd50 b3bc 48b5 0cbe 1555 8a3b 7e14 a1bd
00000220: 7f59 82bd 319b 813c 2180 ff3b 15ee c7bd
00000230: a5b0 8fbd 6fa3 1fbd 90ab d73d b192 993c
00000240: 4f94 8fbb d63a 02bd e6b9 f1bd e2d5 5c3d
00000250: f6fc 8f3d 8253 8ebd 5b40 efbc 42b9 12be
00000260: b749 43bc d053 e2bc 5830 94bc 0e14 59bd
00000270: 510a 2bbc e1b2 65bc 8f8d 4b3d 4232 933d
00000280: f6e6 163d cd56 c73c 92fa 893c 9ab6 72bd
00000290: 2cc4 7ebd 1ecc 86be cfac a1bc 1b77 40bd
000002a0: d454 63bd b225 683c 78fb a33b 0375 1fbe
000002b0: 744a dabc 1ea9 aa3c e173 e4bb 6333 08bc
000002c0: 6720 503c 670c a5bd 014e 133d fc03 c23c
000002d0: d394 e1bc 792d 9dbd b1f0 7cbd bb82 5c3d
000002e0: cccd 38bc 6d58 01bc b07a 44bd 465b 963d
000002f0: 372f 97bd f4b8 233c a014 b8bc 2e70 f0bc
00000300: 2350 c2bc d11a 1bbd 2058 64bd 174d 073d
00000310: b9d2 9cbd 659e 62bc 674c 7bbc d7cf 15bc
00000320: a0c9 2dbc 5864 8b3c c698 9dbc c5ed 25be
00000330: 9430 a5bb e020 debd 72ce fe3b 09ac 223d
00000340: dd76 0cbd 0c9d 09be 68f3 a0bd ffdb 3139
00000350: 6f50 81be b266 28be 6d4f b7bc 55c9 9cbd
00000360: 5445 33bd 86a9 023c 48b1 933d 6081 253d
00000370: cea6 81be 209a d0bd fdea 0fbd 7fc8 f1bc
00000380: 5b3f f13b be49 a2bb 4541 bdbd 527a a6bd
00000390: 6417 28bd f250 b7bc 3a23 3dbc 19ab 14be
000003a0: 1d55 61bd a253 a9bd cfca 4abd 992c 01be

regressor.6.weight f4 [15, 236]
0.0073747346 -0.03210945 -0.13737592 0.0053669894 0.077924944 0.013124667 0.13482718 -0.03273946
-0.051115286 0.11973448 0.059139274 0.0004717306 0.22604676 -0.09552174 -0.097245716 -0.0627877
-0.01977041 -0.40251768 0.13405067 0.08893537 -0.010477075 0.09026825 -0.028908739 0.05061627
-0.22213861 -0.15972468 -0.08452786 0.12696855 0.080879495 -0.07840705 -0.005858143 0.021057868
-0.06580331 -0.047588192 -0.09656397 -0.02523668 0.07934153 -0.14191388 -0.020363541 -0.22644465
-0.0056817303 0.03169943 0.049659017 -0.008183622 0.26318398 -0.09994474 -0.06255746 0.117757805
0.03612864 0.06672715 -0.07515281 -0.07287419 0.11060964 -0.08050661 0.0036663627 0.09230407
-0.11514241 -0.05678175 0.09905855 0.022079289 -0.03239221 0.26251417 -0.026810134 -0.14680183
0.00957796 0.15793781 0.006994863 -0.009861194 0.06384672 -0.028887594 -0.0370178 0.0454686
0.045061514 0.027773937 0.008791237 -0.3170142 0.03683918 -0.050156012 0.01254853 0.096001506
0.01407578 -0.05707996 0.032929715 0.32062143 -0.06666633 -0.11091837 -0.086999305 -0.10118959
-0.026997125 -0.070947155 -0.15903671 0.07102021 -0.064238615 -0.06721061 0.031669155 -0.04796519
0.04233464 0.052381836 -0.24193878 0.15125054 -0.024508964 -0.0074993726 -0.21122463 0.06868413
0.02733632 -0.013612346 0.040312823 0.11513047 0.04995588 -0.025907598 -0.005835393 -0.07415179
0.08378425 -0.083753616 0.043360017 -0.09170406 0.0936528 0.07996822 -0.072771 0.11759011
0.0524571 0.021007838 0.06466245 -0.015093666 -0.020016555 0.032631326 0.006673218 -0.02430351
-0.10390186 0.073699355 0.37544715 0.026867978 0.022835528 -0.35465565 -0.061150566 0.023075853
-0.05713906 0.11465173 -0.1469389 0.07779916 0.18927796 -0.03101982 0.013926128 -0.04023756
0.25962636 0.009375207 0.044246644 0.11796353 0.06448747 -0.25201958 0.03772025 -0.18351506
-0.015762381 -0.122834265 -0.04816862 0.07937275 0.069706835 0.044527378 0.07323431 -0.13339143
-0.04739709 0.03504516 -0.0097830715 -0.027753113 0.022237493 -0.00682611 -0.09262755 -0.081578285
0.2708926 0.03264687 -0.051700585 -0.01200186 -0.15530916 0.06342051 -0.017543877 0.27135977
0.10542259 0.12013702 0.052853934 -0.013621885 0.03675786 0.05391487 -0.05680156 -0.0044800867
0.022977868 0.030548275 -0.020704689 0.036906008 0.016430281 0.05823863 0.017972948 0.054525062
-0.07071843 0.2120218 -0.06388796 0.0675685 -0.052079428 0.03142784 -0.061342917 -0.00421134
-0.0626013 0.0061439527 0.0030504833 -0.10218207 0.01609383 0.0003447879 -0.08940836 0.07506291
0.055919103 0.11115874 0.09757083 -0.039902486 -0.055805784 0.07737883 0.00011060581 -0.07731366
0.37573022 0.004523908 0.08586806 0.07415676 0.17205384 -0.0894495 0.09145105 -0.15314882
0.066689156 0.028839353 -0.009273307 -0.0923559 -0.0706125 0.10562026 -0.043006044 0.0657716
0.12049852 0.024118803 0.051368743 0.1242869 -0.0818487 0.025533482 -0.17570633 0.040243685
-0.031865653 0.062367696 -0.12078986 -0.07666358 -0.029789323 -0.012460883 -0.022584332 0.026939617
-0.23104225 0.007655199 -0.0017982848 0.06083141 -0.0443341 0.69330984 -0.21655346 -0.1369426
00000000: c2a7 f13b 3385 03bd 46ac 0cbe 92dd af3b
00000010: 1d97 9f3d d808 573c 2310 0a3e d019 06bd
00000020: 435e 51bd 5a37 f53d 063c 723d 9c52 f739
00000030: cd78 673e e7a0 c3bd c328 c7bd d696 80bd
00000040: 8ef5 a1bc cc16 cebe 9444 093e bf23 b63d
00000050: 0aa8 2bbc 8fde b83d 05d2 ecbc 0253 4f3d
00000060: 4e78 63be de8e 23be f11c adbd 0b04 023e
00000070: 26a4 a53d e093 a0bd aaf5 bfbb 8d81 ac3c
00000080: e3c3 86bd d6eb 42bd 55c3 c5bd 27bd cebc
00000090: d07d a23d df51 11be 71d1 a6bc 1be1 67be
000000a0: cf2d babb 43d7 013d 4167 4b3d 9914 06bc
000000b0: 0dc0 863e d4af ccbd 201e 80bd 012b f13d
000000c0: a0fb 133d 3ea8 883d b7e9 99bd 103f 95bd
000000d0: 4f87 e23d a6e0 a4bd 5c47 703b eb09 bd3d
000000e0: c9cf ebbd fb93 68bd 36df ca3d a0df b43c
000000f0: b2ad 04bd 4268 863e eda0 dbbc 3853 16be
00000100: e0ec 1c3c 73ba 213e 2a35 e53b d890 21bc
00000110: 12c2 823d ada5 ecbc fa9f 17bd 483d 3a3d
00000120: 6c92 383d 2b86 e33c 1f09 103c af4f a2be
00000130: aee4 163d 6470 4dbd 5998 4d3c 709c c43d
00000140: 1a9e 663c adcc 69bd 4fe1 063d 7e28 a43e
00000150: 5b88 88bd 2c29 e3bd b12c b2bd 7d3c cfbd
00000160: 1329 ddbc be4c 91bd 85da 22be 0b73 913d
00000170: 898f 83bd b7a5 89bd 84b7 013d 2677 44bd
00000180: 1667 2d3d 568e 563d cdbe 77be 6ce1 1a3e
00000190: 06c7 c8bc 4cbd f5bb 454b 58be 44aa 8c3d
000001a0: 6bf0 df3c 5106 5fbc 0f1f 253d 86c9 eb3d
000001b0: 899e 4c3d 2c3c d4bc d336 bfbb e5dc 97bd
000001c0: 1497 ab3d 0487 abbd 469a 313d 57cf bbbd
000001d0: 0acd bf3d 61c6 a33d f608 95bd 15d3 f03d
000001e0: 42dd 563d a118 ac3c bf6d 843d 6c4b 77bc
000001f0: c2f9 a3bc 6da8 053d 03ab da3b 2818 c7bc
00000200: 80ca d4bd b0ef 963d 9c3a c03e 3c1a dc3c
00000210: 9311 bb3c 6d95 b5be 0479 7abd 9209 bd3c
00000220: a60a 6abd 87ce ea3d 2777 16be 2a55 9f3d
00000230: 15d2 413e 471d febc 6a2a 643c 24d0 24bd
00000240: bfed 843e 789a 193c f83b 353d dd96 f13d
00000250: 0212 843d b608 81be 8d80 1a3d 5feb 3bbe
00000260: 1c20 81bc 8890 fbbd 754c 45bd 2e8e a23d
00000270: 75c2 8e3d 5762 363d dffb 953d c397 08be
00000280: 7323 42bd 848b 0f3d 2d49 20bc 7f5a e3bc
00000290: 672b b63c 90ad dfbb 83b3 bdbd 8412 a7bd
000002a0: 6fb2 8a3e b9b8 053d fec3 53bd 73a3 44bc
000002b0: 5d09 1fbe 9de2 813d 2db8 8fbc abef 8a3e
000002c0: cde7 d73d 660a f63d 5e7d 583d 542e 5fbc
000002d0: 698f 163d d7d5 5c3d c1a8 68bd b1cd 92bb
000002e0: 153c bc3c 6040 fa3c e19c a9bc c12a 173d
000002f0: cc98 863c a18b 6e3d 013c 933c ac55 5f3d
00000300: d3d4 90bd 3e1c 593e b1d7 82bd 5b61 8a3d
00000310: 3d51 55bd 7bba 003d b642 7bbd 48ff 89bb
00000320: 1c35 80bd 3653 c93b 9eea 473b d544 d1bd
00000330: 35d7 833c a6c4 b439 bb1b b7bd 95ba 993d
00000340: 6e0b 653d 32a7 e33d 37d3 c73d ca70 23bd
00000350: 9b94 64bd cb78 9e3d 0bf5 e738 a056 9ebd
00000360: b65f c03e 4a3d 943b 98db af3d 80df 973d
00000370: e22e 303e 4d31 b7bd b04a bb3d 0bd3 1cbe
00000380: 5394 883d 8240 ec3c 12ef 17bc 1725 bdbd
00000390: 499d 90bd 6f4f d83d 1b27 30bd 43b3 863d
000003a0: eec7 f63d cc94 c53c 0868 523d 218a fe3d
000003b0: 4ba0 a7bd 982b d13c 5cec 33be 90d6 243d
000003c0: 8f85 02bd 4575 7f3d ad60 f7bd cc01 9dbd
000003d0: bd08 f4bc bb28 4cbc c702 b9bc 79b0 dc3c
000003e0: 5796 6cbe 77d8 fa3b 6db4 ebba 5b2a 793d
000003f0: ac97 35bd c17c 313f 31c0 5dbe ae3a 0cbe

regressor.6.bias f4 [15]
-0.019655596 0.054617524 0.07630244 -0.047544733 0.04550044 0.031039206 -0.10795783 0.002474269
0.0059554796 -0.06279785 -0.00062961475 -0.023363497 -0.058945127 0.042849455 -0.03970716
00000000: c604 a1bc a0b6 5f3d 7444 9c3d 44be 42bd
00000010: ab5e 3a3d ef45 fe3c ff18 ddbd 5827 223b
00000020: 2f26 c33b 299c 80bd bb0c 25ba ce64 bfbc
00000030: 7270 71bd e982 2f3d faa3 22bd
