pigment_model_bundle_opt37.pt (torch, 314632 bytes, 7 tensors)

pigment_embedding.weight f4 [23, 61]
000000 b6 39 27 3e 82 96 b1 3e bc 19 1a 3e 83 0a 63 3e
       0.16330609 0.3468514 0.1504888 0.22171979
000010 3c d8 2c 3e 38 f9 7d 3e 49 fb 14 3e a1 77 52 bc
       0.16879362 0.248021 0.14548983 -0.012845905
000020 ee 6e ca 3e 88 27 1e bf f0 b7 12 bc 02 5f 31 3d
       0.39537758 -0.6177907 -0.008954987 0.043303497
000030 73 9a d9 3c f6 00 33 3d 06 ab 9c bd 89 39 ee bd
       0.026562905 0.04370209 -0.07649808 -0.11632068
000040 93 29 88 3e c2 b6 10 be 67 72 53 bd a2 81 e9 3c
       0.2659422 -0.14132217 -0.051622774 0.028504197
000050 68 34 62 be 01 fd 8c bd 57 07 18 be be 26 12 bd
       -0.22090304 -0.06884194 -0.1484655 -0.03568148
000060 46 fe 3d 3c a2 44 d6 bc 3a ce 0a 3d 21 59 36 bd
       0.011596268 -0.026155774 0.03388808 -0.044518594
000070 27 6d 9b 3d 49 b2 88 bd 79 a4 e8 bb 93 b2 e9 3d
       0.075891785 -0.0667463 -0.007099685 0.114110135
000080 78 79 0c 39 39 b6 15 bd 3d 33 51 3e 05 01 c1 bd
       0.00013396691 -0.036550734 0.20429702 -0.094240226
000090 5f 42 da 3e 28 2b 0e 3f 08 9c df 3e 40 f5 5a be
       0.42628762 0.555346 0.4367373 -0.21382618
0000a0 9e 73 17 bd 36 88 17 bd 7a ed 3c be 09 cf d9 be
       -0.036975496 -0.036995135 -0.18449965 -0.42540768
0000b0 43 32 44 be e3 27 28 3e fd f8 47 be f7 db e8 3e
       -0.19159798 0.16421466 -0.19528575 0.4548032
0000c0 31 1e d6 be 6c a6 b6 be f3 73 61 3e 8e af 1e 3e
       -0.4181991 -0.35673845 0.22016887 0.15496656
0000d0 14 e6 bc bc ea c9 0f bf f9 f4 d1 3d c1 f9 a3 be
       -0.023058929 -0.5616747 0.10251803 -0.32026485
0000e0 9e b2 1b be c5 ec ec be fd 33 2b bf fd 87 1d 3d
       -0.15204856 -0.4627439 -0.668762 0.038459767
0000f0 af c6 a3 be be 8d b0 39 e2 7c 23 3d 21 f3 68 bd
       -0.3198752 0.00033674942 0.03991402 -0.05687249
000100 8c 3b 08 be 11 f5 25 bd c2 12 e3 bd 3a 99 b3 bd
       -0.13303965 -0.040516917 -0.11087562 -0.0876946
000110 ac f3 e0 3e 74 36 89 3e b0 3c e2 be e0 f2 e9 bd
       0.43935907 0.26799357 -0.44186926 -0.11423278
000120 20 5c 89 bd c3 b4 16 3d 3e d2 85 bd 14 36 00 bd
       -0.067070246 0.03679348 -0.06534241 -0.031301573
000130 4b bc 3b 3e 34 a5 d6 bc f4 a1 be bd dd 4e a1 bd
       0.18333547 -0.026201822 -0.09308234 -0.0787637
000140 4c 79 03 be bc 25 d5 bd 34 06 89 bd 81 4e 16 be
       -0.1283924 -0.10407588 -0.06690636 -0.14678384
000150 b7 fe 1e be e0 7a 00 bf 1e 8a 99 3c 17 fb 0b be
       -0.15526854 -0.5018749 0.018742617 -0.13670002
000160 14 61 d8 bd 5b 6a 23 3b 2e 98 b7 bd e9 55 48 be
       -0.10565391 0.002493522 -0.08964573 -0.19564022
000170 58 56 ec 3c c1 58 ca bd 0b 61 43 be ba 28 a8 3d
       0.028849766 -0.0988021 -0.19079988 0.08210893
000180 7a a7 8b 3c 39 5f ad be 99 f3 96 bd 0b 59 a9 be
       0.017047632 -0.33861712 -0.07370681 -0.33075747
000190 e6 e0 84 3e 34 b1 33 be bc 61 22 be d6 77 84 be
       0.25952834 -0.17548066 -0.15857595 -0.25872678
0001a0 46 1e 24 bf ea 4e b0 3e a4 30 ae bd 75 ec f1 3d
       -0.64108694 0.34435207 -0.08505371 0.11812679
0001b0 1b 28 06 be ba f9 58 3e 6e 90 de 3e 87 d0 82 be
       -0.13101237 0.21189013 0.43469566 -0.2554972
0001c0 f6 60 b7 3e a2 be 1b be 7c 5d e8 3f 8a 35 f4 3c
       0.35816163 -0.1520944 1.8153529 0.029810686
0001d0 db a7 cc 3e 84 25 78 3e 31 a4 13 3f d8 8e 1c bf
       0.39971814 0.24233061 0.5767241 -0.6115546
0001e0 07 22 9b 3d 74 d4 f5 bd eb dc af ba 66 39 b3 3e
       0.075748496 -0.12003413 -0.0013417279 0.3500473
0001f0 5b a2 98 bd a9 55 a6 bd 31 af 94 3d 4c 2b cb 3b
       -0.07452842 -0.08121807 0.072599776 0.0062002297
000200 8e 6b cd bb 0d 21 94 be 8d 8d 25 3d fd 43 90 3c
       -0.006268925 -0.28931466 0.040418196 0.017610544
000210 37 c4 eb 3d 75 d7 b7 3d dd 36 5b bc ca ea 38 3e
       0.115120344 0.08976642 -0.01337978 0.18058315
000220 aa 81 ca 3d cc 4d f4 3c b9 be f4 3c cf 45 35 bd
       0.09888013 0.029822253 0.0298761 -0.044256028
000230 70 2f 43 3d c3 4d 6f bc 63 eb e9 3c 00 a7 15 3e
       0.04765266 -0.014605942 0.028554624 0.14614487
000240 f4 bd a6 bd 57 6d 33 3e 85 37 a5 bd 9b 13 2c be
       -0.081416994 0.17522179 -0.0806723 -0.16804354
000250 a8 66 1a be 31 46 97 bd 59 84 ba bd fd 6f 6a 3d
       -0.15078223 -0.07386435 -0.091072746 0.057235707
000260 e5 d4 da bb eb 22 76 3d 2d 73 5f 3d 54 5c 04 3e
       -0.006678211 0.060091894 0.0545532 0.12925845
000270 f0 41 f1 3d d1 03 8c 3e 97 a6 66 3f d4 d9 c4 3e
       0.11780155 0.27346662 0.90097946 0.3844744
000280 ed a1 13 3f a9 e7 ae 3d 89 3d 77 3e 09 1d 58 3e
       0.57668954 0.085402794 0.24144568 0.21104826
000290 64 c1 da bc cf 41 af 3e 83 fe b6 be 64 13 79 3b
       -0.026703544 0.34229895 -0.35741052 0.0038005942
0002a0 5a 14 9a bd 81 17 d3 3e 07 b6 bb be 67 9b 9f be
       -0.07523413 0.4122887 -0.36662313 -0.3117325
0002b0 ef ab 98 3e 94 3e d5 3d 60 e5 b0 3e c7 22 b6 3f
       0.29818675 0.104123265 0.3455 1.4229363
0002c0 31 5c 35 be ff d9 d8 bb ee d3 15 be 3a 0e 92 bd
       -0.1771095 -0.006617784 -0.14631626 -0.0713162
0002d0 7d bb 2b 3e 49 cb 0a 3e 45 25 96 3e 93 e4 09 be
       0.1677074 0.1355411 0.2932531 -0.134661
0002e0 81 43 07 be 8d e9 b1 bd 22 77 90 bd 69 30 25 bd
       -0.13209344 -0.086871244 -0.07053973 -0.04032937
0002f0 3f d0 9e bd c4 9f 5a be 39 48 f2 bc 71 ee 89 bf
       -0.077545635 -0.21350008 -0.029575454 -1.0775892
000300 a7 73 82 3d 89 5a 07 be a1 0e 2f bd 98 54 be 3d
       0.06369715 -0.1321813 -0.04273856 0.09293479
000310 45 18 fe bd 65 4e 11 bd 90 63 34 bd 71 7c 5f 3c
       -0.12406973 -0.035475153 -0.044040263 0.013640509
000320 17 1b db 3d 87 90 58 b7 17 70 d7 bc ec 5e be bb
       0.10698526 -1.2908254e-05 -0.026298566 -0.0058096554
000330 d0 9d 89 3d 51 3c 0a 3e fe 61 f3 3c 27 2a 9b 3d
       0.067195535 0.13499571 0.029709812 0.07576399
000340 ff 4b 79 3c 7a 45 97 bd 73 35 73 bd c7 e0 03 3e
       0.015215873 -0.073862985 -0.059377145 0.12878715
000350 20 79 e4 3d 21 39 26 be ee 3f e2 bd 7d c9 2d be
       0.11155915 -0.1623273 -0.1104735 -0.16971393
000360 65 8d 92 3e ec 6e 69 3e ab 8d 3a bc 43 9d 46 be
       0.286235 0.2279622 -0.011386315 -0.19395928
000370 81 8d b5 3d 92 ea 8c 3d 5d 38 8f be 1f ba 66 3e
       0.0886488 0.06880678 -0.2797269 0.22531937
000380 bb 4f 72 3e 1b cd 91 3d 6a 5d 0c 3f d1 62 55 bd
       0.23663227 0.07119199 0.5483004 -0.05209619
000390 00 af b8 3e da d0 99 bc 1f 00 7d 3d a8 bb 0f 3d
       0.36071014 -0.018776346 0.061767694 0.035091072
0003a0 cd 56 66 3d 04 cf 3c 3e 65 25 75 bd dd d9 7d 3e
       0.056235123 0.18438345 -0.059850115 0.2479014
0003b0 f7 94 67 bf 2d 16 d2 3d 47 c4 00 3e bf 33 5f 3e
       -0.9046168 0.10258136 0.12574874 0.21797083
0003c0 4d 4d 8b 3e ed f8 54 3f f4 ab c1 3b 66 69 f0 3e
       0.27207413 0.8319233 0.005910391 0.46955413
0003d0 36 9c be 3d 80 b9 50 3e b3 90 f6 bc f4 c6 47 bc
       0.093071386 0.20383263 -0.030098295 -0.01219343
0003e0 92 4e c8 3c f9 73 fd 3a db 49 4a bd e0 aa 15 3e
       0.024451528 0.0019336931 -0.04938684 0.14615965
0003f0 18 c0 83 3f 6d a5 b7 3e 33 ce fe bc 0d 14 4f bd
       1.0292997 0.35868397 -0.031104183 -0.05055623

regressor.0.weight f4 [256, 23]
000000 16 e2 bd 3e a4 e7 9e 3e f7 3c c3 be f0 0f a0 be
       0.37086552 0.31036103 -0.3813245 -0.3126216
000010 dc 68 08 bf d7 58 2c bd 80 75 0f bf 78 fd 04 bf
       -0.53285 -0.04207691 -0.56038666 -0.5194926
000020 9d ac 96 3e 66 58 28 be 76 3f ed bb 8c f2 b0 be
       0.29428568 -0.16439971 -0.007240231 -0.3456005
000030 1a 66 7b 3e a4 bd f4 bd 87 81 9b bc a3 23 e2 be
       0.24550667 -0.119502336 -0.018982662 -0.44167814
000040 fd 3b e4 bd fc 6c 80 be 88 27 18 3e 81 36 db bd
       -0.11144254 -0.25083148 0.1485883 -0.10703755
000050 55 a2 95 be 7d 9a 55 3e ae 04 15 3d 54 b3 c0 3e
       -0.29225412 0.20859714 0.036381416 0.37636817
000060 7c 74 16 be 04 94 95 bd 87 d1 af be 8a ca a5 bd
       -0.14692873 -0.07303622 -0.34339544 -0.08095272
000070 74 11 79 be be bf 1c be 2d 3d 87 be e5 21 b2 3e
       -0.24323064 -0.15307519 -0.2641386 0.34791484
000080 62 6f 51 be 73 5a 80 be 9b c4 c4 3c 01 ac ad be
       -0.20452645 -0.25069007 0.02401953 -0.3392029
000090 02 ed bf 3d 82 28 e7 bd f1 4e 5e bc 77 25 0f 3f
       0.093713775 -0.11287023 -0.013568626 0.5591654
0000a0 55 77 67 be 13 f3 4f be 8e e8 7a bc da 5d 8d 3e
       -0.22604115 -0.20307569 -0.015314234 0.27610666
0000b0 2f 18 8e 3e 50 c8 a4 3c b0 ad d7 bd 95 b8 86 be
       0.27752826 0.020115048 -0.10531175 -0.263127
0000c0 58 0e 8b 3d 48 fc ee 3e 90 43 8f bd 3f 50 36 3f
       0.06789845 0.4667685 -0.069953084 0.71216196
0000d0 37 d9 b4 3e 96 13 dc be ae 38 fe 3e 60 1e 25 be
       0.35321972 -0.42983693 0.49652618 -0.16124868
0000e0 ea 2d a5 be 5e 62 14 3f f4 b8 10 3e c5 3f 29 3e
       -0.32261592 0.57962596 0.14133054 0.16528232
0000f0 03 48 e0 3e e8 ed f3 3e d1 27 49 bd 0a e9 ab be
       0.4380494 0.47642446 -0.049110238 -0.33576232
000100 74 9b 98 3d 90 59 86 3e 6d fe 09 bf 54 43 35 bf
       0.07451525 0.26240206 -0.5390385 -0.7080586
000110 18 fc 76 3e 19 93 d0 bd 39 f6 35 3e 2d d1 ec 3b
       0.24119604 -0.10184307 0.17769708 0.007227084
000120 6e 5f c2 3d ee 29 91 be 0e 84 4e 3d ad 43 39 be
       0.09490858 -0.28352302 0.050418906 -0.18092223
000130 7a 12 f6 bb a7 d8 aa 3d 91 1c 9d bd 52 55 48 be
       -0.007509527 0.083421044 -0.07671464 -0.19563797
000140 29 e0 d1 be e4 b5 19 be 94 cd d5 3c 83 6a 2e 3e
       -0.40991333 -0.15010792 0.026099004 0.17032818
000150 3b 54 85 3e b7 4f 2e bf 61 aa 55 be 94 8d cf 3e
       0.26040825 -0.68090385 -0.20865776 0.40537703
000160 bf 9e 6b be 3f 31 97 be 15 a7 c1 3d d4 92 e4 be
       -0.23009776 -0.2952976 0.094556965 -0.4464327
000170 b2 3a 87 be cf 3c 8d be d6 24 72 3d f0 ae 49 3e
       -0.26411968 -0.27585456 0.05911716 0.1969564
000180 6c 98 33 3d e4 54 9d 3e 6c 10 c9 3e 39 66 42 3e
       0.043846533 0.3072883 0.3927034 0.18984307
000190 a6 96 9e 3e f5 9e fd 3d ef 17 82 be 53 4f 45 be
       0.3097431 0.12383834 -0.25408885 -0.19268541
0001a0 e4 ce a2 be 3d f2 05 be 2b 6e 8c 3e 5b ba 14 3e
       -0.3179847 -0.13080688 0.274278 0.14524214
0001b0 64 9b 96 be 7f 85 e3 bd 91 93 80 be ef aa 73 3d
       -0.2941543 -0.11109447 -0.25112584 0.059489187
0001c0 35 a2 b1 bd eb 80 ee be ef 48 6c 3e 8f 49 db be
       -0.08673517 -0.46582732 0.23074697 -0.42829558
0001d0 41 9b ea be 38 79 36 3f 4e c8 77 3e 24 f8 70 3e
       -0.45821574 0.71278715 0.24197504 0.23532158
0001e0 6c 6d 9b be 1f 52 d6 3d 42 a3 ab be 54 33 9f 3c
       -0.3035692 0.10464882 -0.33522993 0.019433655
0001f0 16 6b 39 bf 8a 67 b0 3e 2a dd c2 ba 55 f9 61 3e
       -0.72429025 0.34453994 -0.0014866937 0.22067769
000200 60 f3 d0 be c4 f4 38 3d 47 0a 58 be 7b 9f 88 3e
       -0.4081068 0.0451553 -0.2109767 0.26684174
000210 b8 94 86 be ee 22 23 3f 5a 9b ae be 33 59 b1 be
       -0.26285338 0.63725173 -0.341029 -0.34638366
000220 22 b7 f3 3d ed e0 1b 3d a5 8a c1 3e 77 d6 9f be
       0.11900164 0.038056303 0.3780109 -0.3121831
000230 8d 9d 4a 3d 52 8e 8e bc 12 f3 4c 3e 1e f4 44 be
       0.04946666 -0.017401848 0.20014599 -0.19233748
000240 d6 96 68 bd 79 cd ce 3e 6d ab 52 be fe 9a 93 3e
       -0.056784473 0.40391138 -0.20573206 0.28829187
000250 cb 87 c1 be b3 96 99 3d b9 75 6c be cc 0b ad 3d
       -0.37798914 0.07499447 -0.23091783 0.08449516
000260 1f fb 0f be 18 9a a2 bc 70 0a 68 3b a3 45 7a 3e
       -0.14060639 -0.019848868 0.0035406612 0.24440627
000270 6b 51 1f bf 72 b8 a6 3e 0d e1 cb 3e 6d 06 1e 3f
       -0.6223361 0.32562596 0.39820138 0.61728555
000280 b9 36 a8 be 42 ec 5d be 98 c4 d7 be 4e b8 5a 3e
       -0.3285425 -0.21672156 -0.42142177 0.21359369
000290 b2 92 c6 bd f6 e5 23 3e 0e 5e b4 be 0a f7 c5 3d
       -0.09695949 0.16005692 -0.35228008 0.096662596
0002a0 e7 88 6e bc 70 79 9d 3d 95 5b 2a bb 9c fe ae be
       -0.014559007 0.07689178 -0.0025994529 -0.34178627
0002b0 aa 18 95 3e 8a d9 a3 be 10 ad 7b 3e 5b dc 48 3e
       0.2912038 -0.32001907 0.24577737 0.19615309
0002c0 e6 98 bb 3e 6d 8c fc bd bb 7e 46 be 83 72 b2 bc
       0.3664009 -0.123314716 -0.19384281 -0.021783119
0002d0 fa 52 18 3d 92 7f 1f 3e 5c 49 99 3d 30 7a 2c be
       0.037188508 0.15576008 0.07484695 -0.16843486
0002e0 5e 6a 75 be f1 09 a2 bd 5d 54 17 be e2 c2 e4 3e
       -0.23966357 -0.079120524 -0.14778276 0.44679934
0002f0 01 82 85 be af 8e d4 3e 96 dd 5c 3e 9f dd f5 3e
       -0.26075748 0.4151511 0.21568903 0.48020646
000300 e5 58 fb bd 5f c9 5b be aa b8 e7 bd 02 64 ef bd
       -0.12272815 -0.21463536 -0.11314519 -0.11688997
000310 12 2b ad 3e b3 1f 26 bf 3a c4 9a be 2f c0 af 3e
       0.33821923 -0.6489212 -0.30227834 0.34326312
000320 e1 24 50 3e fa 41 7e be f1 8f 81 be 40 63 3f be
       0.20326568 -0.24829856 -0.2530513 -0.18690205
000330 52 7e b4 be c8 1d 41 3d 22 ce 90 3e ce b3 db 3e
       -0.35252625 0.047147542 0.28282267 0.42910618
000340 41 b2 9e be a3 8d 82 3e df 65 14 bc 6a 72 ab be
       -0.30995372 0.25498685 -0.009057491 -0.33485729
000350 73 02 23 3e 00 8a a8 3d a1 50 b0 3d a8 34 e0 3e
       0.15918903 0.082294464 0.08609129 0.43790174
000360 1b a7 d4 bd 97 7b be be 0d 09 8b be 53 b0 06 3e
       -0.10383435 -0.37203667 -0.27155343 0.131532
000370 cc 51 3a be 81 a1 ed be e5 d1 a9 be ed 94 bf be
       -0.18195266 -0.4641228 -0.3316795 -0.3741831
000380 92 a8 9c 3e 49 d4 25 3e ee 34 06 bd 55 6a 66 be
       0.3059736 0.16194262 -0.03276532 -0.225015
000390 cc 96 66 3d 19 0b 88 be d9 e2 4a bd 96 ad 16 3e
       0.056296155 -0.26570967 -0.049532745 0.14714655
0003a0 81 d8 68 bd a9 88 1e 3e a0 cd 46 3b 4d da 2b be
       -0.0568471 0.15481819 0.0030334964 -0.16782494
0003b0 ef c9 7a be b1 9d c9 3e cd a6 62 be 6c e4 a5 3e
       -0.24491094 0.39378121 -0.22133942 0.32400835
0003c0 96 f8 d9 be 92 3d cb 3d 64 81 97 3e 1e 0b 9b be
       -0.4257247 0.09923853 0.29590905 -0.3028192
0003d0 bb 7c 27 3d f7 3c 1d be fe 50 49 3e ad 30 c7 3e
       0.040890437 -0.15355287 0.19659802 0.38904324
0003e0 b4 1b ac 3d 97 84 94 be 77 c3 ad be 0a 54 ed bb
       0.084037215 -0.29007408 -0.3393819 -0.0072426843
0003f0 90 68 47 be 76 29 35 3c f5 4f a6 3c d5 f9 5c 3e
       -0.19473481 0.011057248 0.020301798 0.21579678

regressor.0.bias f4 [256]
000000 13 51 a8 3d 61 b7 de bd 4b b5 19 3e 70 d3 e0 3d
       0.08218589 -0.108748205 0.15010564 0.109778285
000010 05 0d b3 3d a2 84 9b bd b1 7a f7 bd 38 c1 86 bb
       0.08742718 -0.07593657 -0.120839484 -0.004112389
000020 6c 19 ba 3c 3c f7 48 3d e0 82 40 3a 8c 97 8a 3e
       0.0227172 0.049063906 0.00073437206 0.27068746
000030 ab e2 2a be 1a 46 1f 3e 1e 92 a9 be 28 af aa bd
       -0.1668803 0.15554085 -0.3311929 -0.0833419
000040 59 ad 39 bd f5 59 cf 3d 9f 3a e1 3d 7a 4c 2b 3e
       -0.045331333 0.1012458 0.10997509 0.16728392
000050 89 f8 3e be 53 b5 56 bd 5e cb 60 3e f1 e5 9d 3d
       -0.18649496 -0.052419018 0.21952578 0.077098735
000060 8a e0 60 3d 8e c6 8a bc 2e 27 d1 3d f0 ff 17 be
       0.054901637 -0.016940381 0.10212551 -0.14843726
000070 e6 2c c5 3d 33 8d 71 bd 9e e6 27 be ab b8 1d bd
       0.09627704 -0.05897255 -0.16396567 -0.03850619
000080 5c 43 ed bc 7e 6b d4 3d 7d 98 15 3d 8e 18 3b be
       -0.028962784 0.10372065 0.036522377 -0.18271086
000090 c1 e7 83 3e 04 96 b6 3d 93 a1 30 3e e2 6d 1d 3e
       0.25762752 0.08915332 0.17249136 0.15373948
0000a0 a2 90 64 bd 23 2a 3d be 33 ed 20 3e 28 81 d3 3d
       -0.055801995 -0.18473105 0.15715484 0.10327369
0000b0 25 4d a2 3d 49 55 dd 3d fd 7a fc bc 17 f6 5d 3d
       0.079248704 0.108072825 -0.030820364 0.054189768
0000c0 4f 8f b0 bd 97 ea b1 3b ec a1 03 3e 1b 51 12 3e
       -0.08621084 0.0054295766 0.12854737 0.14288752
0000d0 65 ee 82 bd 72 72 34 3d 09 b2 1f be 2d 9b 5f be
       -0.063931264 0.044054456 -0.15595259 -0.21836539
0000e0 85 18 8b 3d 1f 9b e7 bc 6c f5 2e bc ba 41 ca 3d
       0.06791786 -0.02827221 -0.01067863 0.098758176
0000f0 97 10 0b 3b 1d d7 bc bd 70 37 63 be f8 ed d9 3c
       0.0021219605 -0.09220717 -0.22189116 0.02660273
000100 8f ea ae bb 9a 02 7b 3c 5e 03 e8 b9 65 7a 51 be
       -0.00533802 0.0153204445 -0.00044252997 -0.20456846
000110 00 41 ec bc 08 28 18 3d 55 b4 33 bd eb e5 c9 bd
       -0.028839588 0.03714755 -0.04387315 -0.098583065
000120 82 a6 50 3e 34 64 a0 be ec 0c ad bd d1 f8 fc 3d
       0.20376018 -0.3132645 -0.0844973 0.123521455
000130 62 77 20 3d 2c 66 e3 3d 84 7c 23 be 21 5d 0f 3e
       0.039176352 0.11103472 -0.15965468 0.1400037
000140 76 01 80 3c 8e 66 cb 3d 56 49 1d be 9e 72 f5 3d
       0.015625697 0.0993167 -0.15360007 0.11984752
000150 0a ee 8a bc 68 2e d6 3c aa b0 11 be 98 8f b3 3c
       -0.016959209 0.026145175 -0.14227548 0.021919057
000160 77 c6 83 3d d4 8a 86 3d 6d 30 8e 3d 42 e4 47 3c
       0.064343385 0.06569448 0.0694283 0.012200417
000170 09 98 4a bd b5 06 3e bd 8f 41 2a 3e 74 fe d9 bc
       -0.0494614 -0.046393115 0.16626571 -0.02661059
000180 25 ee 9c bc 94 0b eb bd 57 75 73 bc 1d 22 11 be
       -0.019156525 -0.11476818 -0.014859519 -0.1417317
000190 bc c4 8e 3d 6e fd 4f 3d bb 06 a7 3e d5 78 82 be
       0.06971118 0.0507788 0.32622322 -0.25482813
0001a0 b5 c3 01 3e 54 d8 17 3e 2b 03 27 bd d6 52 31 bc
       0.12672313 0.14828616 -0.040774506 -0.010822972
0001b0 e5 07 51 be d0 0a 03 bd e4 c9 6c 3d 81 31 bf 3d
       -0.20413168 -0.031992733 0.057809725 0.09335614
0001c0 89 26 c3 3c 4c 1c 10 be 85 22 a9 bd e7 1f b7 3d
       0.023822086 -0.14073294 -0.08258537 0.08941632
0001d0 b4 b4 6b bd 3e 58 74 bd 0d c1 0a 3e 9e 14 11 3e
       -0.05754538 -0.059654467 0.13550206 0.14168021
0001e0 c9 7c d2 3d dc 6b a5 bd f0 65 cd be 07 4d ff bd
       0.10277707 -0.08077213 -0.40116835 -0.12465864
0001f0 36 bf d7 3d 29 74 82 bd d4 ea 01 3e 95 1d 6e 3d
       0.105345175 -0.06369812 0.12687236 0.05813368
000200 b4 91 86 3d 30 95 3f 3d a1 47 81 bd f7 78 df 3d
       0.065707594 0.046773136 -0.0631249 0.10911744
000210 06 91 79 be 88 f8 90 3c 37 ec 32 be 3f b4 1a 3d
       -0.24371728 0.017696634 -0.17472921 0.037769552
000220 65 14 68 bd c4 b5 f0 bd 2e 23 f1 bd 11 09 ec bd
       -0.056660075 -0.11753419 -0.11774288 -0.11525167
000230 53 57 14 3e 20 cd 54 be 0e e7 07 3c b4 ba 9b 3a
       0.14486437 -0.20781374 0.008294834 0.0011881203
000240 12 34 af bd bf e9 b0 bc 3f 78 ba 3c 56 5b 98 bd
       -0.085548535 -0.021595834 0.022762416 -0.07439296
000250 9b 34 14 3d 06 c9 4f 3d 76 4a 5a bd b3 35 92 bd
       0.03618298 0.05072882 -0.053293668 -0.071391486
000260 3a a5 3e 3e 11 5f 44 be 91 6c 49 3e 4a 6c d0 3d
       0.18617716 -0.1917689 0.19670321 0.101769045
000270 6f 36 42 3d 3d c1 f8 3d 92 41 db 3d f8 20 30 be
       0.047415193 0.12146232 0.10705866 -0.17200077
000280 44 9f 2e 3d ec b7 b9 3d 10 c8 3b bd d8 8b d9 bc
       0.042632356 0.090682834 -0.04584509 -0.02655594
000290 15 1a f1 bc 59 79 35 be 67 cb e1 3c 58 8e 24 3e
       -0.029431382 -0.17722072 0.02756281 0.16069925
0002a0 52 f1 69 bd 27 73 a6 3d bd 5e a1 3d a7 84 dc 3d
       -0.057114907 0.08127432 0.07879398 0.10767489
0002b0 5b 91 d4 bd 60 3a 87 3d 42 ed 90 3c 3b 4c 1e be
       -0.10379287 0.06602931 0.017691258 -0.15458767
0002c0 66 72 5f 3e af a9 54 3e fb 75 67 bc 28 9d 96 bd
       0.21820983 0.20767854 -0.01412725 -0.07354194
0002d0 7d 36 80 bc d1 33 27 be 8a ea 98 bd 7c 63 91 3d
       -0.015650982 -0.1632836 -0.0746661 0.07099053
0002e0 1b 3c 2f be d8 dd 68 3c f6 67 b0 3c 52 81 05 bd
       -0.17112772 0.014213048 0.021533947 -0.032594033
0002f0 a4 36 65 3e 9d 2f 5f 3e bc 17 2f 3e 0f 11 5b bd
       0.22384125 0.21795507 0.17098898 -0.053483065
000300 a0 7f 3f bc b6 a0 e4 3d d8 d4 10 bd 8e d1 a2 3c
       -0.011688143 0.11163466 -0.035359234 0.019875314
000310 4b 8f 8c 3d 30 2d 47 be c1 16 c7 bd 88 3d cc 3d
       0.068632685 -0.19450831 -0.09721137 0.09972674
000320 99 67 8b bd 22 3e bc 3d 6e 13 a9 3d 93 5c ea bd
       -0.06806869 0.091915384 0.08255659 -0.114434384
000330 cf 38 46 bb 23 db 49 be 7b 12 7b 3d 16 33 0d 3e
       -0.0030246263 -0.197125 0.06129692 0.13789019
000340 c5 cf ee 3c 55 c2 be 3c e1 0e 8a be dd bc fb bb
       0.029151807 0.023286024 -0.26964477 -0.0076824264
000350 12 34 54 be c9 3c 77 3c d2 bf 1b be 0c 47 99 ba
       -0.20722988 0.015090176 -0.15209892 -0.0011694147
000360 67 4f be bc 2f 43 c0 3d a4 c9 72 bd c6 db ec bc
       -0.023231221 0.09387814 -0.05927433 -0.02891339
000370 b8 6b c1 bb fb 38 7d 3e 7d e3 98 bd 79 0b b2 3d
       -0.0059027337 0.24728768 -0.07465265 0.086935945
000380 a7 e1 8c 3d ea 9f c7 bb 02 c5 24 3e b7 bf 91 bd
       0.06878977 -0.0060920613 0.16090778 -0.07116645
000390 93 26 86 bd 1d ea 37 3e f3 06 84 bc 18 9b da 3d
       -0.06550326 0.17960401 -0.016116595 0.10674113
0003a0 fc e1 25 3e 3c 62 d6 bd 10 97 40 bd 1e 03 42 3e
       0.16199487 -0.104679555 -0.047019064 0.18946502
0003b0 b4 8b d1 3c 29 a1 b3 3d cb ac f0 3c fa 7b 9d 3d
       0.025579311 0.08770973 0.02937927 0.07689662
0003c0 5d c8 2f be 4d a9 c2 bc 6a 29 0d 3e 2d f7 c1 bd
       -0.17166276 -0.02376237 0.1378533 -0.09470973
0003d0 35 6b dd bd ff 66 fd bc f2 be 45 3d d4 28 9b 3d
       -0.10811464 -0.030932901 0.048277803 0.07576147
0003e0 b7 aa 48 3d 0f f9 da 3d ec c1 68 bd 7c b4 d7 3d
       0.04899093 0.106920354 -0.056825563 0.105324715
0003f0 dc 6a af bd d2 54 19 be 09 72 6b be 05 88 43 3c
       -0.08565304 -0.14973763 -0.2299272 0.011934285

regressor.3.weight f4 [256, 256]
000000 b3 6a 01 3e cb a1 9a 3e 05 d9 8a be d7 79 81 be
       0.12638359 0.30201563 -0.27118698 -0.2528827
000010 95 dc 00 bf bb 1b 19 bc bf 0a f5 3c ed a8 d7 bc
       -0.5033658 -0.00934499 0.02991235 -0.026325667
000020 00 71 69 be e6 b6 08 bd 51 b2 e8 bc 5d 50 86 be
       -0.22797012 -0.03337755 -0.02840534 -0.26233187
000030 07 da 09 be b7 0e 74 be 21 86 f7 3d 8f b4 c6 3d
       -0.13462077 -0.23833738 0.1208613 0.097024076
000040 4c 55 0c be 0c 38 92 bd b7 29 a1 be 7c ea 8d bd
       -0.13704413 -0.07139596 -0.31477138 -0.0692949
000050 ee 53 29 bd 22 b9 20 3d 13 4f 8d 3d 3f 05 f5 3d
       -0.041339807 0.039239056 0.06899848 0.11963891
000060 5d a1 64 3d fb e6 56 be 99 49 89 3e e8 73 19 3c
       0.05581795 -0.2098655 0.26813963 0.009366013
000070 78 69 79 be bf 6e 9f be bd d3 62 bd 06 2d 0c 3f
       -0.2435664 -0.3113918 -0.05537771 0.547562
000080 e9 eb b7 3d c9 eb dd bd d2 e4 de bc d4 77 a2 3e
       0.08980543 -0.10835988 -0.02720872 0.31732047
000090 30 1a a8 be d1 d4 db 3d 9f c1 b3 3c 62 f6 27 bc
       -0.3283248 0.10733951 0.021942912 -0.010251613
0000a0 55 bc 93 3d 4c ef 93 be 0a 44 f6 bd d6 86 79 be
       0.07213656 -0.28893507 -0.12024696 -0.24367842
0000b0 9f 7a aa 3c 6d 60 fa bd 37 16 c1 3d 6c 1c cc be
       0.020810423 -0.12225423 0.09428065 -0.39865434
0000c0 1c 45 3f bd ca 31 70 bd 5e 01 b9 bd a1 e9 8a bd
       -0.046696767 -0.058641233 -0.09033464 -0.067828424
0000d0 9e bc 6a bc c5 1f ff bd 8c 9d 34 3e e1 58 db 3d
       -0.014327196 -0.124572314 0.17638224 0.10710312
0000e0 d5 59 6d 3d 74 54 4e 3e f7 25 cf 3d fc 52 f8 3d
       0.057947 0.20149404 0.10114663 0.12125203
0000f0 10 c1 5e bd 1c a2 18 3d b1 af 4e bd 13 05 69 3e
       -0.054383337 0.037263975 -0.05046052 0.22755842
000100 e2 59 68 3e f7 54 dc bd 39 04 c8 3c a5 8c 1f bb
       0.22690538 -0.10758393 0.024416076 -0.0024345305
000110 2f 42 66 be 64 0f d7 bd f0 62 f5 3b 30 5d 40 be
       -0.22486185 -0.105009824 0.007488601 -0.18785548
000120 d8 50 1c be a8 a0 c2 3e f8 a6 c3 3e 6a b1 0b be
       -0.15265214 0.38013196 0.38213325 -0.13641897
000130 69 12 79 bd 39 bf 63 3d 54 c8 18 3e 8d ef 78 3d
       -0.060808573 0.055602286 0.14920169 0.06077533
000140 ec 34 38 be ee f3 43 3d 99 02 de 3e 07 15 59 be
       -0.17988938 0.04784005 0.43361357 -0.21199428
000150 d5 f7 c5 3d 73 b3 0a be 20 91 c7 3e 80 5b 96 be
       0.09666411 -0.13545017 0.3897791 -0.29366684
000160 a1 01 03 be cc 37 2e bd e9 2e e1 bd 7a 69 ad be
       -0.1279359 -0.04253368 -0.109952755 -0.33869535
000170 ee 69 a9 bd fd 57 5e 3c 26 09 76 be e4 46 81 be
       -0.082721576 0.013570783 -0.24026927 -0.25249398
000180 c1 86 d3 be b5 04 41 3e 0a 22 1e 3e e5 50 1f 3f
       -0.41313747 0.18849452 0.15442672 0.6223281
000190 ad b3 5e 3e 8c 58 d0 bd dc 2c 0d 3d 78 3c a5 3e
       0.21748228 -0.10173139 0.03446661 0.32272696
0001a0 d0 97 c1 bd 4d 62 45 bd 5f 9e ef be 69 d2 a5 3e
       -0.09452784 -0.04818945 -0.46800515 0.32387093
0001b0 4a 7f ed 3b 9c 08 05 be ce cb e2 3c 71 e1 0f be
       0.00724784 -0.12991565 0.027685072 -0.14050843
0001c0 c9 c9 97 3d 0f ce 52 3e fe 30 8d 3e 90 dc 04 be
       0.07411534 0.20586418 0.2757644 -0.12974763
0001d0 d5 99 16 3d c6 ae 26 3e a6 9e dd 3d 97 67 06 3e
       0.0367678 0.16277608 0.108212754 0.13125454
0001e0 09 07 31 be f0 80 a1 3d 71 1c 44 3c 0e 36 b2 3e
       -0.1728784 0.07885921 0.011969672 0.34806865
0001f0 3b 10 52 bd 28 92 05 3d 63 69 69 3d bb 79 e3 3d
       -0.05128501 0.03261009 0.05698527 0.111072026
000200 2a b7 86 be 8e f6 0b be 94 a8 ef 3d ec 99 49 3c
       -0.26311618 -0.13668272 0.117020756 0.012304764
000210 0d aa e4 3c bb de 7b 3e 3a 1f 15 be 5a fe 64 be
       0.027913118 0.24596684 -0.14562693 -0.22362652
000220 96 d3 be bc dc 71 4d 3d 45 62 98 bd 2b 83 0b 3e
       -0.023294251 0.050157413 -0.074406184 0.13624255
000230 d4 c2 71 be 8a 42 3d 3e a3 2c 4c 3c 1e 2e 53 bd
       -0.23609477 0.18482414 0.012461814 -0.051557653
000240 45 33 cf be e2 8d 4e be 55 de 06 be 3a 56 60 be
       -0.40468803 -0.20171311 -0.1317075 -0.21907893
000250 23 b4 45 be 56 86 5e bb 6f 26 6c be 11 9a b5 3d
       -0.19306998 -0.0033954582 -0.23061536 0.088672765
000260 bd 71 0c 3e 67 4d df 39 0a 58 bd bd 55 b4 57 be
       0.13715263 0.00042591544 -0.09245308 -0.21064885
000270 b3 0d 09 be 58 24 ff 3d fb a3 3c be d2 b6 d0 3e
       -0.13384132 0.12458104 -0.18421929 0.4076448
000280 e9 c1 ab bb 42 b9 41 3e ba 89 7e ba fb 89 4d be
       -0.0052416218 0.18918326 -0.0009709854 -0.20072167
000290 dd e1 1b 3f 63 ca 8b 3c 0b 20 0e 3d 9e 75 cf bc
       0.60891515 0.017064279 0.034698527 -0.025324639
0002a0 92 8e 87 be 3a 61 36 bc 48 ae 6e 3e c5 d7 48 3d
       -0.2647596 -0.011131579 0.2330867 0.0490339
0002b0 d3 72 11 bd 39 32 ab 3c 25 7c 14 be 3e b6 a6 3c
       -0.035509896 0.020897971 -0.14500482 0.020350572
0002c0 5e 7a 50 bc b5 03 91 3d 2f 95 cb bd 88 ec ca bd
       -0.012724487 0.07080785 -0.09940564 -0.09908396
0002d0 ec c6 0f be 16 db d6 bd d2 af 4d 3e 4a 86 86 be
       -0.14040726 -0.10491006 0.20086601 -0.2627433
0002e0 ae f8 fe bd 23 75 00 be c3 d2 8e be 20 2f dd 3c
       -0.12449776 -0.12544684 -0.27895173 0.02700001
0002f0 86 a0 be be 41 dc 0b be 5a 89 2c be 56 58 9e be
       -0.37231845 -0.13658239 -0.1684927 -0.3092677
000300 97 8d 3b be a9 60 0a bb f1 66 d9 bd b9 e2 09 bd
       -0.18315731 -0.0021114743 -0.10615338 -0.033663485
000310 5e aa 35 be 5b e4 0b 3f 6e d4 02 bc 70 53 46 bd
       -0.17740771 0.5464532 -0.0079852175 -0.048419416
000320 36 58 f8 bd 6d 27 bd 3d 58 fa 56 3e 68 0e 40 bd
       -0.121262 0.092360355 0.20993936 -0.04688874
000330 18 e0 8c 3e d7 a9 32 be 0b d5 03 3e 85 18 d2 bc
       0.2751472 -0.17447601 0.12874238 -0.025646457
000340 89 16 66 bd a7 29 53 be 5c a3 f5 3d f2 f3 42 3c
       -0.056173835 -0.20621358 0.11994049 0.011898981
000350 ac 9b e7 3e f5 65 50 bd ac 0e 33 be 85 9c df be
       0.45235956 -0.050878484 -0.17486066 -0.43674102
000360 57 45 09 3e 71 23 9a bd b0 03 9e bd 24 17 6f 3e
       0.13405357 -0.07526291 -0.07715547 0.23348671
000370 74 0d 48 be 67 6f cf bc 17 52 cd bc 05 1a b5 3c
       -0.19536382 -0.025321675 -0.025063558 0.022107134
000380 e4 e8 37 be 7e ac bb be d4 3c 40 3c 78 7c 70 3e
       -0.17959934 -0.3665504 0.011733253 0.23484981
000390 56 b0 8b bd 52 9f 2a bd 5c b9 42 be be 72 2c be
       -0.06820743 -0.041655846 -0.19016021 -0.16840646
0003a0 bb 3e b6 be ad d0 3d be 77 eb 21 3e d5 37 a3 3c
       -0.35594735 -0.18536635 0.15812479 0.019924084
0003b0 95 6c 1f 3d 8d 36 12 bd e7 26 58 bd 32 f2 e3 be
       0.03892191 -0.035696555 -0.052771475 -0.44520718
0003c0 dc d8 8f 3d 87 e1 e3 3d c7 c8 53 3e 4c cb c0 3d
       0.070237845 0.11127 0.20682059 0.09413776
0003d0 58 a6 5d be 23 a7 e3 3d c7 9c 29 be 4f 28 b4 bc
       -0.21645486 0.11115863 -0.16563712 -0.021991877
0003e0 7a bc b2 bd 52 6d 8a 3e 2c 72 85 be 19 aa df 3c
       -0.08727355 0.2703653 -0.2606367 0.027302789
0003f0 23 41 c0 bd a1 1e 71 3e a1 3a 7a 3c 4e 88 94 3d
       -0.09387424 0.2354684 0.015272767 0.072525606

regressor.3.bias f4 [256]
000000 22 c2 6e 3c 44 aa a0 bd c2 16 97 3d fb d7 c7 be
       0.014572652 -0.078449756 0.073773876 -0.39031968
000010 1d ec a5 bd 48 e5 74 bd b0 97 52 bc cf 34 2d 3d
       -0.08101676 -0.059788972 -0.012853548 0.04228669
000020 22 af 91 bd ec 54 27 3d a7 30 2c 3d 42 c8 9f 3c
       -0.07113482 0.040852472 0.042038586 0.01950467
000030 f7 2d 27 3d 59 c0 b0 bb c1 b0 94 bd 47 63 65 3d
       0.04081532 -0.0053940234 -0.07260276 0.05600288
000040 8e fb d9 be b9 e7 9a ba 04 a8 f6 bd ea cd d2 bd
       -0.42574733 -0.0011818326 -0.12043765 -0.10293181
000050 2e d8 1e 3c 91 a9 3b bc 89 4f 80 be 78 6d 9c bd
       0.009695096 -0.011454002 -0.2506068 -0.07638067
000060 3f ef 43 bd f6 c2 80 bd 35 93 1a 3c 26 0a 44 bc
       -0.047835585 -0.06287186 0.009434511 -0.01196531
000070 4c 45 11 be b9 a2 a9 3c 81 3a 5c bd 50 e3 8a bd
       -0.14186591 0.020707475 -0.05376673 -0.06781638
000080 70 e1 39 3d 3f d9 00 be c5 89 b6 bd 40 b5 9d bb
       0.04538101 -0.12582873 -0.08912996 -0.0048128664
000090 84 e2 c9 bc 06 8d a5 bd b8 e8 81 3d a3 3e 1a 3c
       -0.024644144 -0.08083539 0.06343216 0.009414348
0000a0 41 74 50 bd a4 c6 32 bd 3f 17 30 bd 47 a7 f5 bd
       -0.05089212 -0.04364647 -0.04299092 -0.11994796
0000b0 83 d1 b8 3c 10 5d b6 ba 81 0b 8b 3c 79 77 2b be
       0.02256084 -0.0013913233 0.016973259 -0.16744794
0000c0 67 05 ab ba 54 73 85 bd 7d 4b a3 3d 4d a8 d7 bd
       -0.0013047875 -0.06516138 0.079733826 -0.10530148
0000d0 dc 0e 9c bd 70 49 0d 3c 78 f3 8c be 17 c2 b2 3b
       -0.07620022 0.008623466 -0.27529502 0.005455266
0000e0 fb b5 91 3a 9a f0 2c 3a d4 16 f1 bc b3 6e 52 bc
       0.0011116856 0.0006597132 -0.02942983 -0.012843776
0000f0 ff df 82 bd 71 10 ba bd 32 fc 36 bd 8b d8 20 bf
       -0.0639038 -0.09085167 -0.044674106 -0.6283042
000100 50 2c c4 bc 1c 5a 35 3c e8 a0 45 bd 1c f6 df 3c
       -0.023946911 0.011068847 -0.048249155 0.027339034
000110 e1 b5 8b 3c a1 8a ae 3c 10 42 c1 bd 6f 56 81 bb
       0.0170545 0.021306338 -0.094364285 -0.0039470713
000120 34 87 4c 3d 23 7d 4f 3b fb 78 40 3d a6 46 1c bd
       0.049933627 0.003166028 0.046990376 -0.038153313
000130 0e 4e 88 bd d3 19 05 bd ac 43 21 be a8 dc 17 3d
       -0.06655513 -0.03249533 -0.15748471 0.03707567
000140 a1 92 14 be a7 48 65 bc f7 69 fa bc 5e af 4f 3c
       -0.1450906 -0.013994372 -0.030568106 0.012676088
000150 e4 5f 95 3c 0e 74 03 bd e5 af 0a bc 23 24 13 be
       0.0182342 -0.0320931 -0.008464788 -0.14369254
000160 25 1c 5a 3c f8 8b b1 3c 09 80 04 bc 18 07 0c 3d
       0.013312374 0.021673188 -0.008087167 0.034186453
000170 86 8a 71 3c 4b 59 e4 bd 8e 5f 88 be 57 2c 25 be
       0.014742499 -0.11149844 -0.26635402 -0.16130196
000180 81 80 4a bd 7d f2 7c 3d f7 a7 c2 3b af 69 a5 3c
       -0.049438957 0.061754692 0.005940433 0.020191995
000190 7b 86 c0 3c bb 3f a1 be f9 5d 26 bd fa f2 ba be
       0.023501625 -0.31493935 -0.040616963 -0.365135
0001a0 28 1e 9a bc 26 3f 8d bc 82 c2 63 3d b1 cc 3f 3d
       -0.018813208 -0.017242026 0.05560542 0.04682607
0001b0 e1 d2 67 bd 29 83 9c bc ae a4 fe bc d7 83 89 3c
       -0.056597594 -0.01910551 -0.031084385 0.016786499
0001c0 51 f5 e4 bc e5 17 37 3c cf ed 05 bb a5 70 c6 bc
       -0.027949007 0.0111751305 -0.0020435934 -0.024223635
0001d0 87 de f8 bc 3d 40 9b bd c6 19 cc bc 28 01 a3 3c
       -0.030379547 -0.07580612 -0.024914633 0.019898012
0001e0 33 4f 2d bd fe e3 5c 3d 90 ae 46 3d e0 ca b4 bd
       -0.04231186 0.053928368 0.04850632 -0.08827758
0001f0 70 d3 53 bc 72 f1 8c bc 59 97 dd bb 90 fe c6 bb
       -0.012928829 -0.017204974 -0.006762427 -0.0060728267
000200 c3 74 a1 bd 5c 35 24 be fa 40 3e 3b 07 b4 0b 3d
       -0.07883599 -0.1603598 0.0029030428 0.034107234
000210 7a 72 54 bc ee c9 64 bb 50 5c 1e be a3 60 10 3d
       -0.012966746 -0.0034910399 -0.15464902 0.03524841
000220 52 f1 8b bd 03 16 f6 bc 9f 41 dc ba c4 c7 78 3b
       -0.068331376 -0.030039793 -0.0016804225 0.0037960866
000230 e3 b7 ac bc 15 ea 86 3c f8 46 64 bc 74 5e a4 bd
       -0.021083778 0.01646904 -0.013932936 -0.08025828
000240 e1 28 2f bd 6d 77 a1 bc 9c 00 16 3c b1 34 97 bc
       -0.042763595 -0.019710267 0.009155419 -0.018457742
000250 c6 8b 3e bd d0 5c b1 3b 1c d1 a7 3d a2 e8 56 3d
       -0.046520017 0.0054126754 0.08194181 0.05246795
000260 61 2c 92 bd 7c 7c 97 3b 30 00 7a bd 55 57 65 bc
       -0.07137371 0.004622994 -0.061035335 -0.013997872
000270 d4 c4 13 bd 38 61 01 be 4f 2d 30 bd a9 03 b0 bd
       -0.03607638 -0.12634742 -0.04301196 -0.08594448
000280 27 a3 97 3d 58 af 34 3d 55 ea a9 bb 95 38 76 be
       0.07404166 0.044112533 -0.0051854053 -0.24045022
000290 91 af 41 bd ac de 7f 3b 57 59 24 bc e9 ea ea bd
       -0.047286574 0.0039042635 -0.010031066 -0.11470587
0002a0 26 65 01 3d b3 f5 47 bc 0c c9 1f bd 48 1d d3 be
       0.031590603 -0.012204575 -0.039010093 -0.41233277
0002b0 0d 3e 36 bc d3 b7 37 be 25 65 af bd f1 f6 a8 3c
       -0.0111231925 -0.17941217 -0.08564214 0.020625563
0002c0 f0 09 e0 bc 86 c5 c3 bd 20 ab 33 bd e1 65 b3 bc
       -0.027348489 -0.09559159 -0.04386437 -0.021899166
0002d0 2f 6f 8b 3d 49 08 05 3d f6 81 7e bd 94 9b 03 3c
       0.06808316 0.032478604 -0.06213566 0.008032698
0002e0 98 cf ca bb b5 dc 40 bd ae e3 7d bd 61 57 48 bd
       -0.006189298 -0.047085483 -0.06198471 -0.048911456
0002f0 48 b2 9b 3c e7 39 06 be ce b6 85 be 49 6b f3 3c
       0.01900591 -0.13108025 -0.2611603 0.029714243
000300 ec fb 8f bd bc b7 54 3d 20 86 ff bc dd ce 33 be
       -0.07030472 0.051933035 -0.031191885 -0.17559381
000310 e6 58 0c bd dc c3 8a be 09 28 5f bb 9e 42 90 bd
       -0.034264468 -0.27102554 -0.0034050962 -0.07043956
000320 d8 88 22 bc b8 72 c3 bd 78 59 08 bc d7 26 09 be
       -0.009920321 -0.09543365 -0.008322112 -0.13393722
000330 5f 88 91 bd fc 1a 58 3c ea 70 d5 3c d4 2e 4c 3d
       -0.07106089 0.013190027 0.026054818 0.049849346
000340 b1 64 c7 bd ad f8 4a 3d bc 7b c2 39 24 d4 9a bd
       -0.09736002 0.049553562 0.00037094753 -0.07559994
000350 f3 d7 ff bc 15 61 be bd eb 58 97 bb 84 1a db bc
       -0.031230902 -0.09295861 -0.004618754 -0.026746042
000360 3c d1 75 bd 66 33 9f bd d7 3c aa bd d0 1e 5c bd
       -0.060013995 -0.07773475 -0.083123855 -0.053740323
000370 15 13 06 bd b2 74 5f 3a 0a ec ab bd 82 e6 31 3d
       -0.03273304 0.0008524164 -0.0839463 0.04343272
000380 bb 46 ef bc fe 67 1a be c8 85 97 3d 3c 2e 06 3d
       -0.029208532 -0.15078732 0.073985636 0.032758936
000390 70 9f 5a 3c c7 6c 1e bd bb 50 28 bd 54 e0 78 3d
       0.013343677 -0.038677957 -0.041092616 0.06076081
0003a0 64 78 c4 3b 44 07 ba bc 00 75 27 bd ce e0 05 bd
       0.005995797 -0.022708543 -0.040883064 -0.032685094
0003b0 75 5b 21 bc 1d 7a 59 bd e4 e7 34 3d 99 85 ee bc
       -0.009848465 -0.053094972 0.04416646 -0.029116439
0003c0 38 d3 e8 bd d7 b8 cd bc 02 a1 60 bd 3b 09 85 bd
       -0.11368412 -0.025112553 -0.05484105 -0.06495901
0003d0 57 cd 32 3d 5d e3 e0 3c 04 57 18 bd fa 22 48 3c
       0.04365286 0.027452165 -0.03719236 0.01221537
0003e0 05 98 a0 bd dc 44 43 bd 2f 2d 22 be bf 0c 5b 3d
       -0.078414954 -0.04767309 -0.15837549 0.053478952
0003f0 86 d3 d2 3c 43 80 c5 bc 9f c2 42 3c b3 a3 80 bd
       0.025735628 -0.024109012 0.011887222 -0.06281223

regressor.6.weight f4 [15, 256]
000000 a6 dd 5e 3d ff ab ad 3c 2a ff c6 bd 42 b8 dc bd
       0.0544106 0.021200178 -0.097166374 -0.10777332
000010 39 01 80 bc 26 61 2a 3d ba e8 1c 3d 58 d8 f8 bd
       -0.015625583 0.041596554 0.038307883 -0.12150639
000020 a3 54 ff bc c2 6b 19 bc 2f e0 3a bb ee 39 ec 3c
       -0.031168288 -0.00936407 -0.0028514971 0.028836217
000030 3a d2 38 bd 6a 2a 41 3e 38 f4 70 3e 53 fb 15 3e
       -0.045122363 0.18863836 0.23530662 0.14646654
000040 d0 18 08 3a 55 be a5 3c 07 ab 3a 3e c1 df 9c bd
       0.00051916856 0.020232359 0.18229304 -0.07659865
000050 48 69 e7 bc 1e 61 98 3c 44 b8 85 3e 04 36 2c 3d
       -0.028248444 0.018600997 0.26117146 0.0420437
000060 8c 49 20 3d 3f a0 77 3d 0a fe 77 3d 71 b4 b3 ba
       0.03913264 0.060455557 0.060545005 -0.0013710392
000070 7f 8f 93 be 58 c4 ec bd f6 6d fb 3b c9 a5 1e 3e
       -0.28820416 -0.11560887 0.0076730205 0.1549293
000080 a9 5c ec 3c f5 0c c3 3d ee 75 b0 bd 04 55 2a be
       0.028852778 0.09523956 -0.08616243 -0.16633993
000090 3e e2 04 3e 41 5e 22 3e d2 bf 27 bd 4a ab 73 3c
       0.1297693 0.15856268 -0.04095442 0.014872381
0000a0 27 50 81 3d a9 75 09 3d c2 42 a7 3d fb 15 9d be
       0.06314116 0.033559475 0.0816703 -0.30680832
0000b0 f2 06 55 3c f8 de 1a bc 2b 67 9a 3c 13 24 08 be
       0.013002144 -0.009452574 0.018848022 -0.13295011
0000c0 9e 20 ac bd 4f 62 d3 3d b4 e5 75 3d 00 b8 1a 3d
       -0.08404659 0.10321485 0.060033515 0.037773132
0000d0 46 a2 69 bd eb dd 0a bd de a5 44 3d 2c 23 38 3b
       -0.05703952 -0.033903044 0.048009746 0.0028097136
0000e0 c2 e7 25 bb 69 fc ca bd 19 01 68 3d 36 e5 78 3d
       -0.002531514 -0.09911425 0.05664167 0.060765468
0000f0 05 82 c4 3c c1 24 02 be 7d 7c 2a 3d 3a 9a 4b 3d
       0.02398778 -0.12709333 0.041622628 0.04970763
000100 07 1e 3c 3c ca 89 10 bb 4b 8d ab bd e5 23 c9 3c
       0.011481768 -0.0022054785 -0.08376559 0.024553249
000110 65 c9 7e bb f7 ef 7d bc ee f2 44 3e a5 84 8e bd
       -0.0038877365 -0.015499107 0.19233295 -0.06958894
000120 b2 48 0e 3d 65 a8 b4 bd 1d 26 86 3d 7b 82 09 3c
       0.034737296 -0.08821181 0.06550238 0.008392925
000130 5c 26 25 3d ad 7d 28 3e 7e 09 9d bc 43 8f 9f bd
       0.040319785 0.16454192 -0.019169565 -0.07790997
000140 bb aa 8c be af 49 a6 3c 67 a9 48 3d e6 99 b7 bd
       -0.27474007 0.020298807 0.04898968 -0.08964901
000150 6c 2b 53 3a 7c 48 aa bc d4 a7 85 3d 8e 10 a5 3d
       0.00080554816 -0.020786516 0.06526151 0.08059798
000160 25 90 f3 3b 1e 26 82 3c 06 76 4f 3b af ae 2d 3d
       0.007432955 0.015887316 0.003165604 0.04240292
000170 09 b2 56 3c da 6a 68 bd 2d d7 08 bf 0b 2b 77 bd
       0.01310397 -0.056742527 -0.5345333 -0.060343783
000180 04 2c d0 3d 75 ae 67 3e 9d 29 66 bd 60 f0 81 3c
       0.10164645 0.22625144 -0.05619203 0.01586169
000190 ff 11 10 3e 7e d5 a6 3d cd 82 cf bc df 4e 06 be
       0.14069365 0.08146189 -0.025330925 -0.13116024
0001a0 a9 70 12 3c 12 87 e9 3d 1c 38 b5 bd e7 44 9c 3c
       0.008937993 0.11402716 -0.08848593 0.019075824
0001b0 e9 a7 28 3d a0 d6 10 3e da 38 f0 bd 04 3f d9 bd
       0.041175757 0.14144373 -0.117295936 -0.106077224
0001c0 24 c5 bd 39 6b d1 50 3e 3c 81 a1 3d cd 3d 29 be
       0.0003619577 0.20392387 0.078859776 -0.16527481
0001d0 a0 57 20 3d b8 26 82 bd 02 a2 16 3c 70 69 05 3c
       0.039146066 -0.06355041 0.009193899 0.008142814
0001e0 f4 51 33 bc e9 22 06 be 39 e3 50 bd c5 9a 87 3e
       -0.010944832 -0.13099255 -0.050997946 0.26485267
0001f0 26 d5 3e bd f2 9d 4e 3d 07 b3 dd 3c 6e 70 35 3d
       -0.046589993 0.050443597 0.027062906 0.044296674
000200 3f 4e 19 be 90 66 fd 3b 12 ba 82 3d 44 f1 5a 3c
       -0.14971255 0.0077331737 0.06383146 0.013363186
000210 5a 25 95 bd 86 c9 c2 bc 22 c1 0b 3e 66 8d 59 bd
       -0.07282515 -0.023777734 0.13647893 -0.053113364
000220 7f d7 b4 bd 53 d5 e7 3c 25 60 89 bd 01 d3 10 3e
       -0.08830165 0.028299963 -0.06707791 0.14142992
000230 a3 8e 35 3d cb f8 f5 3c 1c 36 82 3d 23 58 ab 3d
       0.044325482 0.03002586 0.06357977 0.0836642
000240 30 32 d3 bb 0f 1a 2a 3d db 09 a0 bd dc 98 17 3b
       -0.006445192 0.041528758 -0.0781438 0.0023131883
000250 ac b2 0a be bc f9 3f 3b 41 0e 9a bc 34 9f 5f bd
       -0.1354472 0.002929314 -0.018805625 -0.054595187
000260 9a 67 8a 3d 0c 9b 3b bd fd d7 7b ba 37 84 e0 b9
       0.06758042 -0.04580216 -0.0009607075 -0.00042823117
000270 15 ba 0f bd ab fa 82 3b 16 5c b0 3d 43 94 29 3e
       -0.03508957 0.003997167 0.08611314 0.16560464
000280 3b 99 86 bd 4c 75 c8 3c 51 06 ea bc 61 c3 8b 3e
       -0.06572195 0.024469994 -0.028567465 0.272975
000290 08 92 1f bc bd 48 88 bc f9 5b 8f 3d 95 fa 35 3e
       -0.009739406 -0.016636247 0.06999964 0.1777137
0002a0 dc 3f 35 3d 27 c5 85 bc b2 84 94 bc 43 96 99 be
       0.044250354 -0.016329361 -0.01812968 -0.29997453
0002b0 2e ef 36 bd 20 25 f2 38 30 61 87 3d c4 1a 7e bd
       -0.044661693 0.00011546374 0.06610334 -0.062037244
0002c0 6d d2 f7 bd 44 82 26 bd 7f bc d5 bd 07 6d 89 3a
       -0.121006824 -0.040651575 -0.104363434 0.0010484763
0002d0 30 db 46 3e 1f a2 51 bd f5 95 f0 bc 2c a7 1d bc
       0.19419551 -0.05118 -0.02936838 -0.009622376
0002e0 3b 60 c7 bb 56 cc 18 3b 85 c3 86 3c 00 84 ff 3c
       -0.0060844696 0.0023315153 0.016450653 0.031190872
0002f0 95 37 34 bd 27 22 89 3c 98 47 a0 3d bb b4 8c 3d
       -0.04399832 0.016739918 0.078261554 0.06870409
000300 e1 4b 54 3d 4c ff 4b bd 43 3d 32 3e 1b 05 3c be
       0.051830176 -0.049804017 0.17406182 -0.18361323
000310 df 04 5e 3d 16 8f ac 3d ee 74 18 bd 53 2d 09 bd
       0.054203864 0.08425729 -0.037220888 -0.03349049
000320 17 8f 77 bc 92 68 ab 3c bf 05 13 3c 4b 25 f7 3b
       -0.015109799 0.020923886 0.008973538 0.0075422875
000330 23 c8 d7 bd 82 6b 0d be 71 b0 48 3d d6 f0 0b 3d
       -0.1053622 -0.13810542 0.048996393 0.034165226
000340 ed 85 5a 3d 05 bb a5 bc 9f d4 f8 3c af d1 72 3e
       0.053350378 -0.02023078 0.030374823 0.237128
000350 56 20 b7 3d af 1d 53 3d 03 45 23 3e 2d af 8f 3c
       0.089417145 0.05154198 0.15944295 0.017539585
000360 00 20 5c bd 11 81 1b be 70 61 d6 bc 57 e7 a8 bb
       -0.053741455 -0.15185954 -0.026169509 -0.005154531
000370 e1 87 c4 be 43 ac a0 bd de 89 dd 3c 64 5a f0 3d
       -0.38384917 -0.07845356 0.02704328 0.11735991
000380 49 94 03 3e f3 a8 eb 3d 0c 51 89 be 8d 40 1b 3d
       0.12849535 0.11506834 -0.26819646 0.037903357
000390 fa a1 da 3c 80 9a ed 3e 22 b6 70 3b 31 2e 26 be
       0.026688565 0.46406937 0.0036729653 -0.16228558
0003a0 6a f5 1f bd 57 27 1d 3d 9e 0a bb 3c 4f 84 90 3d
       -0.039052404 0.038367596 0.022832211 0.07056486
0003b0 1c 69 06 3e 7c a8 79 3e b5 c6 54 3d 08 a5 67 3d
       0.13126034 0.24380678 0.051947314 0.05655387
0003c0 63 4a 19 3d d4 41 5d 3c cd d8 40 3d cb 96 24 3e
       0.037424456 0.013504464 0.047081757 0.16073148
0003d0 41 40 43 bc 95 e2 1a bd 01 71 65 bd 3e c3 06 be
       -0.011917175 -0.03781374 -0.056015972 -0.13160416
0003e0 c0 35 f8 3d 6a 1f c3 3d f3 06 3c be 80 9b af bc
       0.12119627 0.09527476 -0.18362026 -0.021436453
0003f0 2a e9 82 3d 09 7f 64 bc 5f b3 1f be 47 cc 76 3d
       0.06392129 -0.013946303 -0.15595768 0.060253408

regressor.6.bias f4 [15]
000000 5c 6f 01 bd 07 ac ef 3c 78 15 0e bd d5 7d c6 bd
       -0.03160034 0.029256834 -0.034688443 -0.09691969
000010 71 ec 10 3a 5b dd 38 bc c2 54 d8 bd 08 45 87 3c
       0.00055283966 -0.011283244 -0.10563041 0.016512409
000020 3b 17 33 3c b6 26 6a bc e5 30 b8 3c 3b c5 a8 bb
       0.010930832 -0.014291456 0.022484252 -0.005150465
000030 7e 29 1d 3c 47 68 72 3b a9 44 80 3c
       0.009592412 0.0036988424 0.01565774
